code/SL-GNN/Models/model_case_1.pt (torch, 72060 bytes, 5 tensors)

layer1.bias f4 [128]
00000000: e472 84bd 0776 1fbe a41c bfbc 0259 4dbd
00000010: 9a05 dcbd 82f0 5bbe d0e3 9fbc b0e1 44bc
00000020: fc0d 1bbe b170 6a3d 0537 99bb bc94 86bd
00000030: d265 0cbd 5c7c 11bd dc4a ecbc 73d7 08be
00000040: 26b7 fcbb 5834 95bd d09d c8bc 181e 0cbd
00000050: ac2b d13c 25d1 df3c 8ec0 a5bc aa13 44bb
00000060: 8c41 c8bd ef55 41be dd14 9ebe a4ed a0bd
00000070: 7981 213d 5866 a9be 01a0 2fbe 28c0 e1bd
00000080: 27f0 b8bc 144c 8bbd dc76 83be d5ca 18bd
00000090: 3f9b 9bbc 6e5c 0bbe 18ce a5bd 9da2 d7bd
000000a0: d6a3 623c ffc5 cabc 1444 94be 1839 98bc
000000b0: cf6c e5bd ee9b 12bd 1847 36bd 25ce c9bd
000000c0: 2ab8 19bd 8782 22be e286 bb3c 6802 d6bd
000000d0: 6ae4 0cbd e572 78be 2016 10be 37e5 33be
000000e0: 3f4e 38be 26b2 32be bcbc 8ebc 134d 8cbc
000000f0: b0fd e5bd 3a6e 86bd e466 7a3c b462 68bd
00000100: 26a0 10be 5680 eabd 5d06 8bbd be21 89bd
00000110: fb24 773b 9a7e 1e3d 5e24 52bd c5e6 fdbb
00000120: 248a c9bd 67a8 fbbc 6a3a 80be d50c 84bc
00000130: f251 5ebe 5797 00bd 3cd0 18be 0c73 8c3d
00000140: 4b51 a43d 1957 eabc 6d62 1b3d a941 373d
00000150: 76e7 2bbd 3b21 b3bd 7629 363c b649 d53a
00000160: 073d f2be d56f dabc 35e0 023b 6350 7c3d
00000170: a674 02be ad22 96bc 2a13 223d b74b bebe
00000180: eaf4 833d ae36 a23c 7526 40be a89c cebe
00000190: bca3 5e3d 67de b2bc 8015 b7bc 3365 f8bc
000001a0: f26f a8bc 202e 0ebd 6169 a2bd 32ed d2bd
000001b0: 06a3 1fbe 2f2a e1bc 5cc1 9f3d 3153 5bbd
000001c0: 7dfa 92be 2296 97bd 6024 04bd ec3f 43be
000001d0: 4b6f 8abe 8f54 9bbd 63a2 b5bd 3ad8 59bd
000001e0: 0294 83bc c2a6 65be 7343 55bc c17d 55bd
000001f0: dc08 8cbc 2253 c13d 95f6 ca3d e797 9bbb
-0.06467226 -0.15572368 -0.023329087 -0.050133713 -0.10743256 -0.21478465 -0.01951781 -0.012016699
-0.15142053 0.057236377 -0.0046757483 -0.065713376 -0.03427679 -0.03551899 -0.02884429 -0.13363437
-0.0077122627 -0.072853744 -0.024489313 -0.034208387 0.02553352 0.027321408 -0.020233419 -0.0029918947
-0.09778127 -0.18880437 -0.30875292 -0.07857826 0.039430115 -0.33085895 -0.1715088 -0.11022979
-0.022575451 -0.0680162 -0.2567662 -0.03730281 -0.018994926 -0.13609478 -0.0809595 -0.10529063
0.013833007 -0.024752615 -0.2895819 -0.018581912 -0.11202394 -0.035793237 -0.044501394 -0.09853772
-0.03752915 -0.15870105 0.022891466 -0.10449678 -0.03439752 -0.24262579 -0.1407094 -0.17567907
-0.17998599 -0.1745077 -0.01742398 -0.017126596 -0.11230028 -0.06563993 0.01528332 -0.056734756
-0.14123592 -0.114502594 -0.06788323 -0.06695889 0.003771125 0.038694955 -0.051304214 -0.007748457
-0.09840801 -0.030719949 -0.25044566 -0.0161194 -0.21710947 -0.03139433 -0.14923185 0.06857881
0.08023318 -0.028605985 0.037935663 0.044740353 -0.041968785 -0.087465726 0.0111182835 0.0016272578
-0.47312185 -0.026664654 0.0019970064 0.0616001 -0.1273981 -0.018327082 0.039569058 -0.3716714
0.06443198 0.019801464 -0.1876467 -0.40353894 0.054355368 -0.021834565 -0.02234912 -0.030321693
-0.020561192 -0.034711957 -0.07930256 -0.10299148 -0.15589532 -0.027485935 0.07800552 -0.053546134
-0.28706732 -0.074016824 -0.032261252 -0.19067353 -0.27038035 -0.07584488 -0.088688634 -0.053184725
-0.016061787 -0.22426894 -0.013016569 -0.05212188 -0.017094068 0.094396845 0.09910313 -0.004748333

layer1.lin.weight f4 [128, 3]
00000000: e36d 55bd 0d94 ac3e 25ef 0abf 8717 ddbd
00000010: 1d5c 423b a125 babd 2062 61be f46d 74be
00000020: 400a ba3b bfb9 863e 3883 5ebe e51b 07be
00000030: 5df0 32be 43f1 25be 1c83 8fbb 516c 59be
00000040: 1134 e0bc 9691 353e 05bf eb39 d417 5bbb
00000050: 21bb 57bd abe2 abbe 1f21 b2be 6583 d1bd
00000060: 8c22 4abd 46f7 a93d 3f5e 04bf d0e7 ddbd
00000070: 9848 903e e2e7 c63d d0bb df3e 16bb 293c
00000080: c607 b3bd 2a1a a33e 0982 82be 3c42 0fbe
00000090: 5823 61bc b905 55bd 6380 42be 8a91 173f
000000a0: bdf3 703c 386d 1ebe 01bc 0cbc f4fd 4abe
000000b0: 30a5 9fbd 7675 563e cbbe 5b3d df36 c1bd
000000c0: 7db2 cd3b 05ea 123e 4b64 61bf b32e ae3e
000000d0: d524 87be 1dfd adbb 65db 85bc b426 01bc
000000e0: 47d3 50bd a447 c93e 8cdf 87bd e8a2 083e
000000f0: 04b3 ea3e 7321 4abd 11df 1fbe 3e41 ff3d
00000100: 77b7 c43d a310 a7be 182f 713b db1b 58be
00000110: 3665 33be bc31 b33e 8014 20bc f237 51bd
00000120: 3f49 c4bd 8e2e c13e 1a62 9f3c c09c 3abe
00000130: 892f 673d 6f59 903d f09c 0c3d f5d6 83be
00000140: f89d 7a3d 0ed5 09be d326 36be e066 efbd
00000150: 6aa9 233e a2ab b33d ad55 7e3d 7109 673e
00000160: 5195 953e 15fa 09bd 1098 ddbd d02e 163e
00000170: 3cad 56bf d606 2abd ff39 29be d775 113c
00000180: ea08 933e 3744 73be ddfb 00be 371d a43e
00000190: 4b32 77be faad 0ebe 5deb 1c3e 8668 09bd
000001a0: e70d 3f3e 5ddb b13e 52ca d23c 66e3 1fbd
000001b0: 84c4 273c 099f 80bd 72d3 2bbd 1408 5b3e
000001c0: c290 5a3d bd60 b53d 7bba 38bd 5761 a8bd
000001d0: ec47 54bd 93bb 3ebc 479f dabd 3149 ac3c
000001e0: 8b0f 0d3f 913e c63d 2930 b5be 3785 43be
000001f0: 798d 02be 747a debc 3f1b af3a 7fe5 88be
00000200: 2995 3d3d 32ae 8fbe 28a3 8fbe 6332 36be
00000210: a234 063f cc26 d6be 2037 c63d c260 e53c
00000220: 9cd3 a8bb a000 d73d 37e7 1fbd 9e48 093e
00000230: c429 edbd cb6f 21be 45c5 803d a0d9 e7be
00000240: 3496 0f3f e1c7 873c c942 cdbc 7841 19be
00000250: 1de8 92bd 56f2 293e 79d3 9a3e 2cfb febc
00000260: da1d 4ebe d96a fd3e 5711 c4be 00ed 213d
00000270: a089 2bbe 1678 34be df23 46bd 71c9 4c3e
00000280: 57c2 1d3e c2a6 363d 6211 bbbd 6778 c23e
00000290: f567 5c3d de6a 31be d844 04bd 2e36 013e
000002a0: b3e0 033e 7ce8 073e b2b9 99be 5d2b 0cbe
000002b0: dfb8 b1bc 80c7 27bd d99c 983c 8770 e93d
000002c0: 87c8 e4bb 65ee 093f 2c42 8e3c d183 3cbe
000002d0: 6976 babd e22f cbbd f91f 41be ec68 2abd
000002e0: 85be 87be bf30 4abe affa 7cbe b8e1 94be
000002f0: 3a84 06be ed8e 1b3f f6a3 e03d 6928 a1be
00000300: bdb5 62bd 9471 9f3c 509b 3dbe a29c 92bd
00000310: 0fbd 3b3e ce14 6cbf 8de6 11bd 670b 053e
00000320: ca87 41be 7979 a43e 03b3 87be 2481 41bb
00000330: 416c 743c 9ac6 583e 6658 2ebc 9685 e53e
00000340: 4f92 acbd cb9c bdbc 2a8b 1ebe 1d4a 14be
00000350: 4264 8cbc 1568 2cbe 9027 a83d 8f14 4bbe
00000360: 2051 97bd 5921 1c3e 4aa8 37bf 4372 41be
00000370: 69ee 34be dc38 3abe ec2e 7ebe 88c2 223d
00000380: 29f4 373e 223e 153f 12b9 043e e2f6 d8be
00000390: 1918 52be 3ec9 a33d 2f51 823d 4268 c13b
000003a0: 21a4 a4ba 2821 30be 5f0d 22bc 6d83 823e
000003b0: fe49 b6be 35d5 96bd d99f c6be f02f f5bd
000003c0: dd7d e9bd 756e 70be b269 d9bc f548 be3e
000003d0: 3db7 acbe 9611 ea3b 33f5 60be cfb8 99be
000003e0: 1e4b ab3b 7524 9a3e 047b b5bd a8f3 b3bd
000003f0: fc9a 61be d332 82be 28e5 3fbe aa00 83bd
-0.05210675 0.33706704 -0.54271156 -0.10795503 0.0029656955 -0.090892084 -0.22010088 -0.23870069
0.0056774914 0.26313588 -0.21729743 -0.13194235 -0.17474504 -0.16205315 -0.004379643 -0.21232726
-0.027368577 0.17731318 0.00044965014 -0.003343095 -0.052668694 -0.3357137 -0.34790894 -0.1023014
-0.049349353 0.08299117 -0.5170631 -0.1083523 0.28180385 0.09712197 0.43697977 0.010359546
-0.08741717 0.318559 -0.25489834 -0.1399011 -0.013741337 -0.05200741 -0.18994288 0.5920645
0.014706549 -0.15471351 -0.0085897455 -0.19823438 -0.07795179 0.20943245 0.05364875 -0.09434294
0.006277381 0.14347084 -0.8804366 0.34020004 -0.26395288 -0.0053097145 -0.016339967 -0.007882763
-0.05098274 0.3931247 -0.06634435 0.13343394 0.45839703 -0.049348306 -0.15612437 0.12463616
0.09605306 -0.3262988 0.0036801752 -0.21104376 -0.17519078 0.34998882 -0.009770513 -0.051078744
-0.09584283 0.3773083 0.019455958 -0.18223858 0.056441817 0.07048308 0.034329355 -0.25749937
0.061185807 -0.1346018 -0.17788248 -0.11689544 0.15982595 0.08772971 0.062093426 0.22562195
0.29215482 -0.033685762 -0.10820019 0.14666295 -0.83858085 -0.041510426 -0.1652603 0.008878193
0.28717738 -0.2375649 -0.12596078 0.3205354 -0.24140279 -0.13933554 0.15324159 -0.033546947
0.18657647 0.34737673 0.02573124 -0.039035223 0.010239724 -0.062803335 -0.041949697 0.213898
0.053360708 0.08856342 -0.045099717 -0.08221691 -0.051826403 -0.011641401 -0.10674911 0.021030994
0.5510184 0.09679902 -0.35388306 -0.19093786 -0.1274928 -0.027158 0.001335956 -0.26737592
0.04628483 -0.28062588 -0.28054166 -0.17792659 0.5242406 -0.41826475 0.09678483 0.02800024
-0.005152179 0.10498166 -0.039038863 0.13406608 -0.11580232 -0.15765302 0.06287626 -0.45283222
0.56088567 0.016574802 -0.02505626 -0.1496638 -0.07173178 0.1659635 0.30239466 -0.031125627
-0.20128575 0.4949558 -0.3829448 0.03953266 -0.16751719 -0.17623934 -0.048374053 0.19998719
0.15406166 0.044592626 -0.09134175 0.37982485 0.05381008 -0.17325923 -0.032292217 0.12618324
0.12878685 0.1327228 -0.30024487 -0.13688417 -0.021694599 -0.040961742 0.018629478 0.11398416
-0.0069819125 0.53879386 0.017365538 -0.18409659 -0.09104616 -0.09921242 -0.18859853 -0.041603968
-0.26512542 -0.19745158 -0.24705003 -0.2907846 -0.13136378 0.6076496 0.10968773 -0.31476143
-0.0553491 0.019463338 -0.18516278 -0.071587816 0.18333839 -0.92219245 -0.03562026 0.12992631
-0.18899456 0.32123926 -0.26503763 -0.0029526437 0.014918388 0.2116951 -0.010641193 0.4482848
-0.08426344 -0.023146054 -0.15482774 -0.14481397 -0.01713765 -0.16836579 0.08210671 -0.19832061
-0.0738852 0.15247096 -0.71741164 -0.18891244 -0.17669071 -0.18185753 -0.24822587 0.0397363
0.17964233 0.5829793 0.12961224 -0.42375857 -0.20517005 0.07997368 0.06363141 0.005902321
-0.0012561121 -0.17200148 -0.009890883 0.25490895 -0.35603327 -0.07364885 -0.3879383 -0.11972034
-0.1140096 -0.23479636 -0.026539657 0.37165037 -0.3373355 0.0071432097 -0.21968536 -0.3002381
0.0052274605 0.3010594 -0.08861354 -0.08786708 -0.22031778 -0.254294 -0.1873976 -0.06396611

layer2.bias f4 [128]
00000000: bef6 0abd c3c4 f23d 7794 a4bd 7593 7e3e
00000010: bfc6 24be 0a47 d9bd 9765 d43d dde1 cabd
00000020: 4683 4cbe da11 503e fce6 18bd 7c12 263d
00000030: abe1 363e be6b 26be af64 853e 869e 123c
00000040: 2bc7 a33e 5f97 d83d 8300 04bd eb69 9e3d
00000050: d928 493d f0a7 403e 61c1 303d 175e d1bc
00000060: 3ab0 ddbd 0cfb 97bd 66a9 8d3d 4418 653e
00000070: ca4e 5b3e 4065 463d 3945 4f3e 1652 013e
00000080: a0b1 c3bc f5b8 7a3e f209 bf3a 5a1e b5b9
00000090: bcc1 6f3d ef71 4e3e 94b8 2a3e 7e4e 893e
000000a0: c5d2 9abd ae74 a1bc ba52 0bbd 460b ef3b
000000b0: 8740 08be cbd8 153e 9026 66be 4bf5 dd3c
000000c0: ce38 f2bd c73f 693e 12a0 0e3e 4979 2cbd
000000d0: 3ec2 fdbd 676f bc3e 9b77 04be 044b 2ebc
000000e0: 556e 193e 065b f8bc a23e d0bd 8c3d 123e
000000f0: 23df b8bb ca43 7b3e 757b 87bc e552 533d
00000100: 1e76 383d 7e70 35bd 3aed cc3d bd61 213d
00000110: 19ef 51bd 8370 fc3c e247 b53e 88fd 1dbe
00000120: 3cf2 f4bd f01e 0b3d 7511 c1be d5ae c1bd
00000130: bee6 cabd 5a7f d63c 5377 753e f696 983e
00000140: daaf 843e ad05 93bc 1cb9 683d eeef 933d
00000150: 5f70 71bd dd91 eebe 139c a6bd 1c38 e93d
00000160: cfb0 163e 43cb b9bd d7c6 d9bd 834c ab3e
00000170: 7609 cf3d 24d7 923e 77c1 a53e 7818 193e
00000180: c998 963e 56c8 9d3d 43e7 823b 9f37 863d
00000190: d38b 2d3e 6c7f 89be f8a3 713e 941b 83be
000001a0: 6b84 3b3e 3fba babd b6e2 183e 0e73 9e3c
000001b0: 37db 1a3e e492 afbb 4d6f 293e 3250 1d3e
000001c0: 78a5 c8bd 13ff 043e 1e01 adbb 6477 8a3e
000001d0: c973 f53d 9fc8 8d3e cc77 9bbe 9909 62be
000001e0: 0f89 e3bc afc4 bbbc 96aa c9bc 04b4 fe3d
000001f0: 318b 0fbd 2738 333e 39a1 3e3e a45f 883d
-0.033926718 0.118539356 -0.0803613 0.24860938 -0.1609144 -0.10609253 0.10370939 -0.09906361
-0.19971952 0.2031931 -0.03732966 0.04054497 0.17859523 -0.16252038 0.26053378 0.008948928
0.3198789 0.10575747 -0.03222705 0.07735046 0.04911122 0.18814063 0.04315317 -0.02555756
-0.10824628 -0.0742093 0.06917076 0.22372538 0.21416774 0.048436403 0.2024125 0.1262897
-0.02388841 0.24484618 0.0014575107 -0.00034545624 0.05853437 0.2016065 0.16671973 0.26817697
-0.07559732 -0.019708958 -0.03401444 0.007295045 -0.13305865 0.14633481 -0.22475648 0.027094504
-0.11827241 0.22778235 0.1392825 -0.042107854 -0.123905644 0.36803743 -0.12936251 -0.010638002
0.14983495 -0.03031684 -0.10168196 0.14281291 -0.0056418343 0.24537578 -0.016538361 0.051592726
0.04503452 -0.044296734 0.10006185 0.03939985 -0.051253412 0.030815369 0.35406405 -0.15428746
-0.11960265 0.03396505 -0.3770863 -0.09457175 -0.09907292 0.026183773 0.239713 0.29802674
0.25915414 -0.017947042 0.05681716 0.07223497 -0.058945056 -0.4659566 -0.081352375 0.11387655
0.14715885 -0.09071972 -0.10633629 0.3345681 0.101092264 0.28679764 0.32374164 0.1495074
0.2941344 0.07704227 0.0039948537 0.06553578 0.1694787 -0.26855028 0.23597705 -0.25606978
0.18312232 -0.09117555 0.14930233 0.019341972 0.15122686 -0.005358087 0.16546364 0.15362623
-0.09797186 0.12987928 -0.005279674 0.27044213 0.11984975 0.27692124 -0.30364835 -0.22073974
-0.027775316 -0.022920934 -0.024617475 0.12436679 -0.035044853 0.17501889 0.18616189 0.06658867

layer2.lin.weight f4 [128, 128]
00000000: 9e24 4cbe e2b7 a83c 5eef 57be 159d e03d
00000010: 7631 0cbd 7363 39be dc93 2d3d 9c18 44be
00000020: 3f9e e0be 3c16 02be 61bc 953d 86d8 c2bd
00000030: d0be bcbe e84f a5be 3297 49bd c170 523e
00000040: 3978 7d3d 2533 ed3d 445c 7abd 465c b9bd
00000050: 24a6 4e3e 6aab f33c b20a de3d 5ab0 a93d
00000060: 6726 2b3e 0c79 0abe 88af b73e f225 3abe
00000070: 14b8 453d 7061 56bd 384f cebd e992 203d
00000080: 0d7f 27be cb8d 333a 6c80 5fbe 7691 2dbd
00000090: 24b6 55bd 77bc 04be 0502 293d 7e9e b639
000000a0: 1630 87bb 211b c23d c1fc 8fbd 23f1 d73d
000000b0: 124f 7c3e 6a3b 55be 7f40 dbbd 3c99 da3d
000000c0: d9c8 a5be b27e c5bd 9346 9d3d 254a ec3d
000000d0: 49ee 2bbe 2d3e 9dbd 4449 373e 9f22 40be
000000e0: 3d8b 063d bad7 bc3d bc7a fcbd 91b0 96bd
000000f0: 2c1d a43d 7d5c e1bd 0fec 3c3e 0d4b 983d
00000100: 87a4 9c3e e0ec af3d 826e 413e 345d 333d
00000110: b602 13bf 7596 843b 3312 29be 18ec aabd
00000120: cb19 af3b 5a8a 97bb 287d b2bd e161 0dbe
00000130: d070 65bc cd21 a63e 6930 0abe ece9 4ebe
00000140: 0c01 163d 1877 0fbd b3d4 b6bd e283 003e
00000150: 2a7b 463d c9f5 7c3d 73a2 20be 4c52 7fbe
00000160: e6ad 813e 460d 8bbf cd8f 59bf 9ab8 b5be
00000170: 977c 753e 684d 053d df3e 2bbc 8828 413e
00000180: 9898 29bc 5c07 b73d 077f 96bc 0869 5f3d
00000190: 77fa 6f3e 9112 dbbd 23a9 fb3d f02f 86bd
000001a0: f013 213c 6929 55be dce9 07bd 39e3 fb3c
000001b0: 57bb 32bd 8d86 663e 1051 833d 6b17 42be
000001c0: 5d46 9d3e 372c 683d efce 093e 207d c8bd
000001d0: 65d3 93bd af2d 38be e331 c6bd 1cc0 e8bd
000001e0: b7be 3c3c 91da 8ebc bf9a 193e ba6a 50be
000001f0: 5879 4f3d 0ba8 00bd 99b1 ebbd f996 ac3e
00000200: 47f7 3a3e 3ea8 32be 98bc 2dbe ee57 bcbe
00000210: 8811 f03d d428 843d b9fb 863c 5e52 04be
00000220: 481c b1be be98 febd 6523 05be 279f 0cbe
00000230: 943c e73c 55dd 4fbe dea2 bb3d 974c c4bd
00000240: 825e e23e 1905 48be cc7b 973d edd0 7cbd
00000250: ae8a 1dbe bc6c d9bc 07d9 3ebd bf86 9bbd
00000260: a0c7 9bbc ca88 6d3e d3e4 55be 770e 613a
00000270: 25c8 23be 7fa9 683e 03f9 a93e 4ade bdbc
00000280: 4274 c83c 6908 083d b68b 5bbe ec47 61bd
00000290: 69d2 283d 4e74 94bd c979 edbd 5d99 3cbe
000002a0: 5623 cebe 1231 b6be 700a b5bc 09bf acbe
000002b0: e200 4e3d 4871 aabd f2fd cc3c 9fb0 60be
000002c0: 20a9 c13d b246 0ebe 2198 75be e06d 75bd
000002d0: c3e1 fc3d 1237 993e c520 273e 4f41 ab3d
000002e0: b0a7 de3d 25fe 973e 469b 14be d861 80bc
000002f0: de31 dabd 66a9 c03d 51e1 e5be 149b 9bbd
00000300: 0852 b2be ce45 a53c ed25 1b3e c1fa 053e
00000310: e8bd 33bc 93df 01be 3395 6d3d ab3e 7f3e
00000320: 492f c93c eae5 67be af63 963d 7800 df3c
00000330: 97fb 78be 8095 373c c558 073e c599 d63c
00000340: 4c03 96be 7c69 59be f725 e2be c8d6 973d
00000350: 7cb6 07be 9c24 253e b6e0 c4be dbad 65bd
00000360: c61c 5abd 9fb5 e33d 3e6f 033e 3640 8c3d
00000370: 27df ab3e ec23 7dbd 3a91 7fbd c054 a7bd
00000380: c5d4 52be a96b adbe 2c67 3cbe 1adb 4abe
00000390: 2da0 2bbd d2d8 4bbe 527f 36bd acc7 76be
000003a0: cad0 b13d 0728 04be cbbc 56be 6ca4 0cbe
000003b0: 4552 203e 725f d1be 560d f2be 428f 1abe
000003c0: 1f87 66bd b960 22be 0688 c7bd e510 903e
000003d0: fbe5 8b3d 32ee e83d 2932 66bd abb5 61be
000003e0: 1da9 55be 3124 893e 728e 24bd d8ec 393e
000003f0: f88e 16be b473 a2bd 5bfe 273e a276 88bc
-0.19935843 0.020595495 -0.21087405 0.10967461 -0.034226857 -0.18104343 0.042377338 -0.19150013
-0.43870732 -0.12703794 0.07311321 -0.09513955 -0.36864328 -0.32287526 -0.049216457 0.20550825
0.06188223 0.11582021 -0.061123148 -0.09050803 0.20180565 0.029744823 0.10841884 0.082855895
0.16713868 -0.13522738 0.35876107 -0.18178537 0.048271254 -0.052339017 -0.100737035 0.039202604
-0.1635706 0.0006849437 -0.21826333 -0.04237505 -0.052175656 -0.12962519 0.04126169 0.0003483183
-0.0041256053 0.09477831 -0.07030631 0.1054404 0.24639538 -0.20823446 -0.10705661 0.106737584
-0.32379797 -0.09643306 0.076794766 0.115375794 -0.16790117 -0.07677875 0.17899042 -0.18763207
0.03284763 0.09220834 -0.12328097 -0.07357896 0.080133766 -0.11003969 0.18449424 0.0743619
0.30594274 0.08590102 0.18889812 0.043790057 -0.5742601 0.004046256 -0.16510849 -0.083458126
0.005343651 -0.004624647 -0.08715278 -0.13806869 -0.014003947 0.32447663 -0.1349503 -0.20206422
0.036622092 -0.035025686 -0.08927288 0.1255031 0.048457302 0.061757836 -0.1568697 -0.24933738
0.25327986 -1.0863426 -0.8498505 -0.35492402 0.23973309 0.032544523 -0.010452001 0.18863118
-0.010351323 0.089369506 -0.018371118 0.054543525 0.23435389 -0.10696901 0.1228812 -0.06552112
0.009831414 -0.20816578 -0.03318201 0.030747997 -0.043635692 0.22512265 0.06411946 -0.18954246
0.30717745 0.05668279 0.13457845 -0.09789491 -0.07218055 -0.17986177 -0.09677484 -0.11364767
0.011520079 -0.017438205 0.15000437 -0.20353213 0.05065283 -0.03141026 -0.115084834 0.33708933
0.18258391 -0.17446992 -0.16966474 -0.36785835 0.11722094 0.064531 0.016477453 -0.12922046
-0.3459189 -0.12431477 -0.13001783 -0.13732587 0.028227128 -0.20299275 0.09161924 -0.09584921
0.4421273 -0.19533195 0.07396659 -0.061722685 -0.15384933 -0.026541106 -0.046593692 -0.0759406
-0.019016087 0.23196712 -0.20888071 0.0008585224 -0.15994318 0.22720908 0.33197793 -0.023177285
0.024469499 0.033211146 -0.21440014 -0.05500023 0.041216288 -0.07248746 -0.11595494 -0.18417878
-0.40261334 -0.35584313 -0.022099704 -0.33739498 0.05029381 -0.08322388 0.025023434 -0.21942376
0.09456086 -0.13894156 -0.23983814 -0.059919238 0.12347748 0.29924828 0.16321094 0.08362066
0.108718276 0.29686084 -0.14512357 -0.015671656 -0.10654043 0.0940731 -0.44898465 -0.07597938
-0.3482821 0.020174887 0.15151186 0.13083936 -0.01097057 -0.12682943 0.058003616 0.2492625
0.02455868 -0.22646299 0.07343232 0.027221903 -0.24314724 0.011205077 0.13217457 0.02619637
-0.2929939 -0.21231645 -0.4416959 0.07414013 -0.13253206 0.16127247 -0.3845269 -0.056074005
-0.053250097 0.11118626 0.12835404 0.06848185 0.3356869 -0.061801836 -0.06239436 -0.08170462
-0.20588978 -0.338712 -0.18398732 -0.19810143 -0.041900802 -0.19906929 -0.044555016 -0.24099606
0.086824015 -0.12905894 -0.20970456 -0.13734597 0.15656383 -0.40893131 -0.472758 -0.15093711
-0.056281205 -0.1585721 -0.09742741 0.2813789 0.06830975 0.11373557 -0.05620018 -0.22041957
-0.20865293 0.26785424 -0.04017491 0.18156755 -0.14702976 -0.07932225 0.16405623 -0.016658131

layer3.lin.weight f4 [1, 128]
00000000: 3db5 903e d7da 4cbe 5560 8a3d a911 84be
00000010: d07f f83d 316f dc3c b70c 62bd ac52 8eba
00000020: 8099 ae3d c3bc 09bd 35d8 0dbe b9e6 c33c
00000030: 857b f83e d1ef d7bd 870c 083f 04d8 d4bc
00000040: 2449 50be 73cb b9bd 0d05 7d3d 5031 96bd
00000050: 9c8b 78bd 021e 0abe a478 ba3d 29d0 82bb
00000060: 3596 afbd 07d9 983d ec7f 823d 10e1 b23e
00000070: 244f 8dbd 5b67 a5bc 7c9c 1f3e 2761 5a3c
00000080: 022f e53d a856 f23e 5354 433c 54a4 b4bc
00000090: 7660 9c3e c8b9 1abe 642c bfbd 935a 19be
000000a0: 3c83 233e 69ea 8d3d ecb5 57bd 46bf 1a3e
000000b0: 8921 983d cda1 c23e 5a3f 643c 3eb9 a83d
000000c0: 74c3 57be 8434 52be 95d9 fb3d 04f4 823a
000000d0: 5182 bd3d 7469 06be 5eb4 573e 5a2f 693e
000000e0: fb13 f5bd 50ee 143e a6a1 eb3d 2ece 09be
000000f0: 3de0 d7bc 71c1 14be 3f7a 02bd cfae 5e3d
00000100: fb2a 793d c3e5 3a3d 5efe f3bd 2987 ce3b
00000110: 5c0e 22be 9b5a 10bd 8ae0 32be 482a 77bc
00000120: 6907 023d 2344 4b3a 56a2 913e 02b0 b63d
00000130: 18d8 d03d 290a 0c3b 45d8 f83e b5c8 16be
00000140: 903e 43be 7251 c03d a61f b4bc b87c 91bb
00000150: 75da 38bd 2b86 e53d dd48 45be a61a 72bd
00000160: caaf 8dbd 87cd 403e 1355 dc3d ddd0 f03e
00000170: 0980 40be a00e 19be d89a 58be 2f69 00be
00000180: 9310 6fbe 23ea 9b3d 105a 1f3e c627 66bd
00000190: 4f27 15be 3d88 153e d88c 21be d163 c43c
000001a0: 02b6 6abe 642c 943d 2ba7 cebd e269 373d
000001b0: 7d61 00be 7d42 38bd 3d71 c3bd e133 16bd
000001c0: 294e 8abd 51e9 2dbe 9fc6 803d b2d1 e1bc
000001d0: 744e a83d c0a2 c13e c7da 153e d2eb 0f3e
000001e0: 52df 4f3e db5d 6ebd bdc5 5f3b 10e5 5c3e
000001f0: 9bee 99bd 8ca4 533c 7bcf c2bb e42e 923d
0.28263274 -0.20005356 0.06756655 -0.25794724 0.12133753 0.026908489 -0.055187907 -0.0010858378
0.085253716 -0.033627283 -0.13852008 0.023913728 0.48531738 -0.10543788 0.53144115 -0.02598191
-0.20340401 -0.09072008 0.061772395 -0.07333624 -0.060680017 -0.1348801 0.091050416 -0.0039921
-0.085735716 0.0746327 0.063720554 0.34937334 -0.068998605 -0.020190885 0.15587038 0.013328827
0.11190607 0.47331738 0.01192196 -0.022051014 0.30542344 -0.15109932 -0.09334639 -0.14975958
0.1596803 0.06929476 -0.05266373 0.15112028 0.07428271 0.3801407 0.01393112 0.08238457
-0.21070653 -0.20527846 0.1229736 0.0009990935 0.092533715 -0.13126165 0.21064898 0.2277197
-0.119667016 0.14544034 0.11505441 -0.13457558 -0.026352042 -0.14526917 -0.031854864 0.05436593
0.060832005 0.045629274 -0.11913751 0.0063027334 -0.1582579 -0.035242658 -0.17468467 -0.015085764
0.031745348 0.00077539886 0.28444165 0.089202896 0.101974666 0.002136836 0.486025 -0.14725001
-0.19066834 0.093905345 -0.021987747 -0.0044399165 -0.04513021 0.11207231 -0.19266076 -0.059107445
-0.06918295 0.18828402 0.10758414 0.4703435 -0.18798842 -0.14946985 -0.21152818 -0.12540124
-0.23346166 0.076130174 0.155617 -0.056190275 -0.14565776 0.14602752 -0.15776384 0.023973377
-0.22920993 0.07235029 -0.100904785 0.044778712 -0.12537189 -0.044985283 -0.09543083 -0.03667057
-0.06753189 -0.16983534 0.06287884 -0.02756581 0.08218089 0.3781948 0.14634238 0.14054802
0.20300034 -0.058194976 0.003414496 0.21571755 -0.075162135 0.012917649 -0.0059451438 0.0713785
