code/SL-GNN/Models/model_case_2.pt (torch, 72060 bytes, 5 tensors)

layer1.bias f4 [128]
-0.042699564 -0.009413684 -0.19469309 -0.09297141 -0.15654519 -0.049487416 0.0005033283 -0.24612896
-0.23056936 -0.20588537 -0.055971283 -0.019672599 0.00066569715 0.00029585222 -0.016021095 -0.018619133
0.08337125 0.05018606 0.20091501 -0.022507109 -0.049959593 -0.015005152 -0.2746027 0.06969225
-0.06358553 0.114030726 0.06780569 -0.035593934 -0.114684425 0.13442452 -0.06274105 -0.015468144
-0.07174652 -0.036902 -0.05161075 -0.06931539 0.011698366 -0.14370987 -0.2770453 -0.01935482
-0.2251874 -0.005671245 0.07661165 -0.0025102356 -0.3720701 -0.12886354 -0.026048776 0.07792083
-0.031414837 -0.13689554 -0.088815175 -0.013213331 -0.035123687 -0.06899955 0.0070498046 -0.019588144
-0.04982108 -0.022075612 -0.049379826 -0.06758705 -0.05853961 -0.039688382 -0.17022131 -0.08842955
-0.13400519 -0.060529396 -0.07548868 -0.30284983 -0.032802284 -0.07101863 -0.04968855 -0.05505717
-0.0025507405 -0.058090534 -0.08124716 0.14057373 -0.004550037 0.034787398 -0.14219461 -0.07522064
0.092928454 -0.110330135 -0.185059 -0.0717504 -0.060519256 -0.06444238 -0.02309148 -0.18769674
-0.011818897 -0.07393977 -0.03901815 -0.08339517 -0.06040252 -0.2109753 -0.07872403 -0.115257435
-0.02204636 -0.1782848 -0.02781752 -0.032825913 -0.15360151 -0.0052520814 -0.13893187 -0.027264101
-0.051864892 -0.0021484876 -0.070556074 -0.03678502 -0.12969013 -0.015343736 0.040275663 -0.13589962
-0.10980396 -0.0061483877 -0.06433154 0.06475323 -0.01690732 0.022747938 -0.013337399 -0.2478853
-0.05982892 0.11148276 -0.0072953654 -0.08833101 -0.022250513 -0.08634217 -0.0666843 -0.06610131
00000000: bde5 2ebd da3b 1abc a05d 47be cb67 bebd
00000010: 624d 20be 51b3 4abd caf1 033a 3b09 7cbe
00000020: 601a 6cbe 9dd3 52be 2542 65bd 6e28 a1bc
00000030: 2e82 2e3a 9d1c 9b39 ac3e 83bc 2787 98bc
00000040: 8cbe aa3d e68f 4d3d aabc 4d3e d460 b8bc
00000050: 6ea2 4cbd 2bd8 75bc ba98 8cbe cfba 8e3d
00000060: 2139 82bd f188 e93d b6dd 8a3d f2ca 11bd
00000070: abdf eabd 95a6 093e 617e 80bd 196e 7dbc
00000080: d7ef 92bd 8d26 17bd cb65 53bd 3af5 8dbd
00000090: 81aa 3f3c ae28 13be e2d8 8dbe 008e 9ebc
000000a0: 8797 66be dad5 b9bb 92e6 9c3d c482 24bb
000000b0: f97f bebe cef4 03be 3e64 d5bc f594 9f3d
000000c0: d8ac 00bd 582e 0cbe bbe4 b5bd ba7c 58bc
000000d0: dbdd 0fbd a34f 8dbd 0c02 e73b 5177 a0bc
000000e0: 3011 4cbd ead7 b4bc 8042 4abd 146b 8abd
000000f0: 3bc7 6fbd 4990 22bd 7f4e 2ebe 8d1a b5bd
00000100: a838 09be aced 77bd cf99 9abd 220f 9bbe
00000110: b05b 06bd 3772 91bd 3986 4bbd a183 61bd
00000120: 532a 27bb 57f0 6dbd e964 a6bd 8ff2 0f3e
00000130: 7a18 95bb 3b7d 0e3d 779b 11be 470d 9abd
00000140: 4651 be3d c4f4 e1bd 1b80 3dbe e0f1 92bd
00000150: 0ae3 77bd 5efa 83bd 582a bdbc 9333 40be
00000160: 0ca4 41bc bc6d 97bd 7fd1 1fbd 16cb aabd
00000170: a268 77bd e909 58be 103a a1bd 170c ecbd
00000180: 919a b4bc 4a90 36be 91e1 e3bc 7774 06bd
00000190: b749 1dbe a719 acbb 2844 0ebe f758 dfbc
000001a0: 4870 54bd a4cd 0cbb b47f 90bd e4ab 16bd
000001b0: 7dcd 04be 4b64 7bbc 18f8 243d 4529 0bbe
000001c0: e6e0 e0bd 6a78 c9bb 41c0 83bd 579d 843d
000001d0: 3881 8abc e259 ba3c 1b85 5abc a5d5 7dbe
000001e0: 2b0f 75bd 1351 e43d f60d efbb e3e6 b4bd
000001f0: b546 b6bc 2ad4 b0bd c791 88bd 2060 87bd

layer1.lin.weight f4 [128, 3]
0.30622312 -0.28539115 0.06653935 0.002845347 0.37551588 0.0039049843 -0.03416065 -0.10581313
0.16383506 -0.18741842 0.011134827 -0.38006064 -0.15353516 0.03561239 -0.35650012 -0.23744719
-0.104966894 0.17071399 0.50477785 0.15794288 -0.21513568 0.16795833 0.1132412 0.08556672
0.007067894 -0.13773176 0.20099375 -0.090929285 -0.09040113 0.17477924 0.054576196 -0.10778021
0.011203557 -0.016198814 0.1971681 -0.06695417 0.35678023 0.21343225 -0.5449593 -0.18669291
-0.012082416 -0.110033385 0.75992274 0.061177865 -0.18944876 0.001834626 -0.08415124 -0.07215087
0.38195398 -0.04141615 -0.018921927 0.06503609 0.36417606 -0.1644706 -0.2002616 -0.50005925
-0.03405186 -0.17487173 -0.20413375 -0.020812394 0.028300818 -0.04617924 -0.010066002 -0.25354242
-0.22238958 -0.19751123 0.017035916 -0.064382106 0.15161917 0.07420222 0.14878452 -0.06811602
0.58734316 -0.025723895 0.044697393 0.02299255 -0.33162633 0.10582829 0.5343962 -0.19616318
0.12746507 -0.20880249 -0.13519055 0.0050461595 -0.08994117 0.10553417 0.08684598 0.4558548
0.05655264 -0.29284856 0.52992016 0.0279648 -0.039637197 0.26827782 -0.25388446 -0.20837925
0.34448826 -0.27176535 -0.14288382 0.86018604 0.085605495 -0.34721142 -0.13311173 -0.3748141
-0.04715734 -0.055747334 0.31441683 -0.13721506 0.4030446 0.043787662 -0.23910592 -0.042789552
-0.13318686 0.10181501 0.17398657 0.16453491 0.13287628 0.30593434 -0.27940208 -0.09161913
0.28485385 0.14054051 -0.15672627 -0.3859089 0.3896417 0.022715166 -0.034581583 0.12723272
-0.12481554 0.31694394 -0.30729404 0.008997546 -0.037837505 -0.29835352 0.026188165 -0.11711722
-0.14770606 0.0089709535 -0.054285754 -0.12989001 -0.05381167 0.37982026 -0.1716539 -0.08546089
-0.15622927 -0.44820735 0.015162779 -0.090931036 -0.17659715 -9.4862895e-05 0.40066636 -0.33098236
0.006468018 -0.27205318 0.1917949 0.079045005 0.30028763 -0.24148181 -0.16506062 -0.09162132
-0.30125794 0.0131746745 0.22035705 0.19059755 -0.4938382 0.2858763 -0.25297618 -0.20261098
-0.111243464 -0.08813314 -0.20296618 -0.0045988555 -0.09474553 -0.117057875 0.56569374 0.01207681
-0.20582457 0.3619073 -0.3184665 -0.012634724 -0.32890567 0.2886704 0.14422616 -0.024779597
-0.09008204 -0.15276197 -0.16135085 0.032868262 -0.5524715 -0.0797024 0.35963634 -0.21826006
-0.010689135 -0.07338974 -0.0008772738 -0.056707874 0.16658291 -0.0974096 -0.04506256 -0.008477186
-0.0146884 0.004115244 -0.19550976 0.23862234 0.021905836 -0.046998877 -0.11295976 0.435469
-0.35686794 0.014127602 -0.2994907 -0.19962761 0.10365187 0.32589334 -0.2649973 0.05026468
0.0070028906 0.25526816 -0.4926658 0.33554962 -0.26848102 0.0073395376 -0.24347064 0.02478251
-0.4652136 0.14580812 0.008732798 -0.09147083 0.048606463 0.061065964 -0.27471462 -0.23226216
-0.3402919 0.0034567243 -0.066221096 0.0011744905 0.073717214 0.39214823 0.01704974 -0.13347153
-0.054797623 -0.13104734 -0.13085361 -0.08100555 0.11347214 0.07401459 -0.07280503 -0.26561573
0.06031655 0.3634152 0.13470775 -0.4313975 0.21304722 -0.013638597 -0.0069759996 -0.037187718
00000000: 47c9 9c3e ca1e 92be c845 883d 0079 3a3b
00000010: 9e43 c03e c4ea 7f3b 0aec 0bbd 8eb4 d8bd
00000020: 61c4 273e 9dea 3fbe d96e 363c 4f97 c2be
00000030: 5238 1dbe 4cde 113d 2f87 b6be 5b25 73be
00000040: e2f8 d6bd a6cf 2e3e 1f39 013f c7bb 213e
00000050: 874c 5cbe 45fd 2b3e 01eb e73d 9b3d af3d
00000060: cb99 e73b 8e09 0dbe 4ed1 4d3e 2239 babd
00000070: 3a24 b9bd 54f9 323e 4a8b 5f3d dfbb dcbd
00000080: 208f 373c 60b3 84bc 6fe6 493e 451f 89bd
00000090: e6ab b63e fc8d 5a3e 7482 0bbf 6d2c 3fbe
000000a0: 53f5 45bc 2f59 e1bd 4c8a 423f a495 7a3d
000000b0: dbfe 41be d577 f03a 7c57 acbd d6c3 93bd
000000c0: 798f c33e fba3 29bd 2802 9bbc a431 853d
000000d0: 4975 ba3e fb6a 28be 6011 4dbe e203 00bf
000000e0: f779 0bbd 9311 33be 7008 51be c17e aabc
000000f0: 1ed7 e73c 7126 3dbd dfeb 24bc 50d0 81be
00000100: 18ba 63be 6240 4abe e88e 8b3c c4da 83bd
00000110: 0e42 1b3e 55f7 973d f85a 183e 6980 8bbd
00000120: 1f5c 163f ebba d2bc 9d14 373d df5a bc3c
00000130: edca a9be 81bc d83d 30ce 083f 00df 48be
00000140: 3486 023e 52d0 55be 646f 0abe 415a a53b
00000150: 1333 b8bd 4d22 d83d 4edc b13d cd65 e93e
00000160: bea3 673d 3ff0 95be d9a8 073f 7016 e53c
00000170: 9d5a 22bd b65b 893e 25fd 81be 5f61 55be
00000180: c460 b03e d424 8bbe 2350 12be 2735 5c3f
00000190: ef51 af3d b2c5 b1be 714e 08be a2e7 bfbe
000001a0: 0e28 41bd 5157 64bd 3efb a03e 1b82 0cbe
000001b0: dd5b ce3e b15a 333d 2fd8 74be 1944 2fbd
000001c0: 2362 08be 6384 d03d 8929 323e d77b 283e
000001d0: b810 083e 6da3 9c3e ca0d 8fbe cfa2 bbbd
000001e0: 5dd8 913e dae9 0f3e da7c 20be da95 c5be
000001f0: 1e7f c73e 2815 ba3c 6ba5 0dbd 4b49 023e
00000200: 4a9f ffbd 7a46 a23e a555 9dbe 716a 133c
00000210: 80fb 1abd cbc1 98be 9088 d63c 27db efbd
00000220: 4240 17be e8fa 123c bd5a 5ebd e301 05be
00000230: a069 5cbd cd77 c23e 0ac6 2fbe 1e06 afbd
00000240: 91fa 1fbe 6f7b e5be 4e6d 783c 0d3a babd
00000250: e2d5 34be 21f1 c6b8 2424 cd3e 8576 a9be
00000260: abf1 d33b 8e4a 8bbe e265 443e 59e2 a13d
00000270: 4dbf 993e 0247 77be a705 29be f5a3 bbbd
00000280: 7b3e 9abe 97da 573c 47a5 613e 012c 433e
00000290: 5cd8 fcbe 615e 923e 1886 81be 4179 4fbe
000002a0: 9dd3 e3bd 267f b4bd 5ed6 4fbe ffb1 96bb
000002b0: f209 c2bd 0abc efbd 4ed1 103f d0dd 453c
000002c0: adc3 52be ea4b b93e 0b0e a3be e001 4fbc
000002d0: 5366 a8be 9bcc 933e 06b0 133e 95fe cabc
000002e0: ef7c b8bd a26d 1cbe 2839 25be dfa0 063d
000002f0: c66e 0dbf 033b a3bd 4122 b83e 917f 5fbe
00000300: 7b21 2fbc 5c4d 96bd d9f8 65ba 8446 68bd
00000310: b694 2a3e af7e c7bd 8593 38bd e5e3 0abc
00000320: 9da7 70bc 2bd9 863b b633 48be 6a59 743e
00000330: de73 b33c e581 40bd 7257 e7bd cbf5 de3e
00000340: 65b7 b6be 7577 673c d856 99be 2e6b 4cbe
00000350: 6e47 d43d 7edb a63e baad 87be 56e2 4d3d
00000360: 8178 e53b 82b2 823e b13e fcbe 29cd ab3e
00000370: 5876 89be 8180 f03b 5e50 79be b104 cb3c
00000380: 7a30 eebe b94e 153e 0214 0f3c 0f55 bbbd
00000390: 9217 473d 4e20 7a3d 65a7 8cbe 22d6 6dbe
000003a0: bd3a aebe 368a 623b ed9e 87bd 5df1 993a
000003b0: 0df9 963d a7c7 c83e e5ab 8b3c c3ac 08be
000003c0: 7973 60bd 4631 06be 7dfe 05be 3de6 a5bd
000003d0: 1564 e83d f694 973d ce1a 95bd c9fe 87be
000003e0: 7d0e 773d 8f11 ba3e d4f0 093e 22e0 dcbe
000003f0: 0d29 5a3e 6c74 5fbc ed96 e4bb 2652 18bd

layer2.bias f4 [128]
0.10400416 -0.04369767 0.2438815 -0.12957534 -0.007670619 -0.075325094 -0.009625369 -0.013973979
0.16142137 -0.008992829 0.19230913 -0.07254862 -0.10376301 -0.06730663 -0.0020060781 0.12763107
0.15312071 0.19689274 0.06404545 -0.17738694 0.039608076 -0.09573612 0.11931193 0.19079803
-0.10297393 0.09835612 0.4707107 -0.0070739244 0.145888 0.33309332 -0.060197588 -0.08751661
0.063971326 0.080444016 0.127054 -0.035827667 0.17403027 -0.039989617 0.082637936 -0.014199794
-0.063833445 -0.04709836 0.1630243 0.15220098 -0.05294897 -0.1497584 0.044433597 0.3367069
-0.111380175 0.15449284 0.0840313 0.30053207 0.028181529 -0.22348945 -0.0037757293 0.054955825
-0.040608183 0.046758343 -0.10865001 0.12735705 0.21597429 -0.033923518 -0.08385627 -0.123483114
-0.37207103 0.12231874 0.20760596 -0.07722408 -0.08232906 -0.11127424 0.33420104 -0.0777156
-0.17409037 0.027159711 -0.14605206 0.30411315 0.049633816 -0.16562672 0.04709272 0.08070443
0.32717383 0.24713804 0.22091728 0.10238728 0.18860409 -0.08375615 -0.065645605 -0.027114464
0.07768129 -0.079233885 -0.0670617 0.16165908 0.18982238 0.032525066 0.022886997 -0.21077792
0.013976501 -0.100661054 -0.120111704 -0.03897326 -0.02928854 0.07344948 0.022479769 -0.06091849
0.17254123 -0.08576587 0.003265124 0.13741656 -0.14116077 -0.20515779 -0.013337536 -0.22185229
0.12671302 0.0057773464 -0.075803146 0.12909502 0.020135824 0.024315605 0.027455624 0.23133343
0.03875147 0.19027333 -0.15740152 0.23239434 0.031008568 -0.081215225 -0.011821124 0.021337902
00000000: 2200 d53d 54fc 32bd 12bc 793e 66af 04be
00000010: d159 fbbb 0b44 9abd b9b3 1dbc 1ef3 64bc
00000020: a54b 253e a956 13bc afec 443e 5f94 94bd
00000030: b381 d4bd 0fd8 89bd 6878 03bb b8b1 023e
00000040: adcb 1c3e 409e 493e 432a 833d eca4 35be
00000050: 143c 223d 4d11 c4bd d059 f43d 8f60 433e
00000060: ffe3 d2bd ef6e c93d fe00 f13e 61cc e7bb
00000070: aa63 153e 358b aa3e bf91 76bd e93b b3bd
00000080: 6603 833d d5bf a43d 721a 023e 08c0 12bd
00000090: fe34 323e 27cc 23bd 143e a93d 41a6 68bc
000000a0: 1cbb 82bd 36ea 40bd d8ef 263e 93da 1b3e
000000b0: 05e1 58bd 445a 19be 0100 363d d964 ac3e
000000c0: 4a1b e4bd 5f33 1e3e 9a18 ac3d 57df 993e
000000d0: f3dc e63c 6bda 64be 3a72 77bb 5c19 613d
000000e0: c454 26bd ad85 3f3d e583 debd e369 023e
000000f0: 5d28 5d3e 63f3 0abd d6bc abbd b7e4 fcbd
00000100: 1880 bebe 3f82 fa3d a896 543e a927 9ebd
00000110: 239c a8bd c0e3 e3bd 661c ab3e 5b29 9fbd
00000120: bf44 32be 0b7e de3c ac8e 15be b8b4 9b3e
00000130: d44c 4b3d 0d9a 29be 4ce4 403d 5d48 a53d
00000140: 5483 a73e c111 7d3e 2438 623e 6cb0 d13d
00000150: 6e21 413e 5888 abbd 3471 86bd 271f debc
00000160: 5e17 9f3d 6045 a2bd a557 89bd f589 253e
00000170: cc60 423e 0139 053d 837d bb3c 2bd6 57be
00000180: b2fd 643c 6227 cebd 20fd f5bd 6da2 1fbd
00000190: 85ee efbc ae6c 963d 7e27 b83c ab85 79bd
000001a0: a6ae 303e 04a6 afbd b1fb 553b edb6 0c3e
000001b0: 738c 10be e214 52be ae85 5abc 3f2d 63be
000001c0: 0fc1 013e e54f bd3b ae3e 9bbd 7c31 043e
000001d0: e2f3 a43c 8531 c73c 9eea e03c ace2 6c3e
000001e0: ddb9 1e3d 03d7 423e dd2d 21be c8f8 6d3e
000001f0: ae05 fe3c 2b54 a6bd 63ad 41bc d3cc ae3c

layer2.lin.weight f4 [128, 128]
0.027637696 -0.19913296 0.17161027 0.063232936 -0.3350289 -0.039626975 0.06816334 -0.6324052
-0.1328708 -0.10838863 0.26775116 -0.26604488 -0.16315746 -0.10193366 0.017884355 0.12058547
0.32056797 0.022194238 0.232028 -0.15607122 -0.33403835 -0.23200163 0.17849691 -0.050902776
-0.086671755 -0.018458867 0.21475407 -0.27670187 -0.091320075 0.31186882 -0.14538316 0.10132792
-0.06664592 -0.2789096 0.14231974 -0.104043245 0.10927545 0.054054316 -0.5829462 0.024024388
-0.06943813 -0.5105446 0.24345726 -0.14249401 0.19275708 -0.10055312 0.071585305 0.2814418
0.023144385 -0.25973058 0.38459542 -0.19579354 -0.1727415 -0.2697996 -0.091084875 0.040799446
0.08860975 -0.28717554 -0.05405331 0.047491357 -0.5406943 -0.16498359 -0.15780516 -0.404286
-0.4267467 -0.2223723 0.17454001 -0.051345058 0.0028800557 0.34593463 0.08775161 0.30557632
-0.1561052 0.19168231 -0.3051345 0.34798416 -0.1376369 0.0849567 -0.07400156 0.1347716
0.07537643 -0.14027968 0.10919222 0.16747311 0.14808723 0.08590002 -0.14953803 -0.37628943
-0.047652967 -0.3893619 -0.09066677 0.28456602 -0.34203255 -0.2828579 -0.4367233 -0.28621697
0.042406112 0.02190832 0.3546862 -0.1844068 -0.06439086 -0.11673621 -0.1571134 -0.23655201
0.05051362 -0.1718779 0.08832965 -0.09355953 -0.40634048 -0.2215744 -0.101160645 -0.17834316
-0.09271977 -0.01562495 0.15173852 0.008610677 -0.24631087 -0.12388269 -0.2210175 0.010720436
-0.099506356 0.024314487 -0.15836048 0.008262455 -0.019061701 0.40741718 0.0121030575 0.016333701
-0.14337428 -0.119617894 -0.14236988 -0.14428669 0.11433635 0.004892809 0.014427608 -0.09465603
-0.011952791 0.02118184 0.012794796 -0.004790873 -0.088642806 0.021500288 0.1177833 -0.04699603
0.10439035 0.0117105665 0.0024482606 0.0727178 -0.033041876 -0.0009633622 -0.031452943 -0.13933133
0.006824053 -0.0016736196 -0.043425336 -0.0017829316 -0.056703363 0.05610007 -0.13205664 -0.05158891
-0.04333876 0.021446018 -0.08370406 -0.017903807 -0.12933299 0.02860974 -0.06213938 0.05141352
0.12094952 0.10057846 -0.09785419 0.0713913 -0.106873564 -0.007654576 0.023400342 -0.15821643
-0.18018974 -0.01958366 0.00035582553 -0.12737265 0.039148867 0.06180821 -0.0395297 -0.19155672
0.008007533 -0.083553344 -0.030903626 -0.08787366 0.01575838 0.030442022 -0.1384322 -0.14032666
-0.14350548 -0.15357958 -0.022604883 -0.06902995 -0.058314756 -0.1582391 0.07439547 -0.10746924
-0.09378411 0.093479745 -0.05986522 -0.086607814 0.031739075 -0.09571179 0.06254872 -0.012255501
0.044069644 -0.0030304561 -0.10954992 -0.0750486 0.0031118337 -0.05891029 0.05869443 0.06277901
-0.094625264 -0.09401338 -0.04104978 0.11820991 -0.021694534 0.09248549 0.009361265 -0.117284015
-0.1345813 -0.028555011 -0.13435437 -0.0898624 0.046259604 -0.14293459 -0.11065196 0.121771485
-0.11225501 -0.16191973 -0.047688592 -0.00348393 -0.15648627 -0.16881154 -0.13702585 -0.012921889
-0.043596618 -0.15679517 -0.15427941 -0.03681177 -0.16905555 -0.15609287 -0.058145627 -0.19220464
-0.07245156 -0.08838326 0.008171516 -0.037926987 0.063795894 -0.09958084 -0.090083435 -0.14444518
00000000: 7368 e23c 83e9 4bbe 9aba 2f3e 4580 813d
00000010: e888 abbe e54f 22bd 3999 8b3d 4fe5 21bf
00000020: 480f 08be dcfa ddbd ae16 893e 0937 88be
00000030: c012 27be 98c2 d0bd 3682 923c 84f5 f63d
00000040: 7c21 a43e b1d0 b53c bf98 6d3e 22d1 1fbe
00000050: 1307 abbe d691 6dbe e5c7 363e 6e7f 50bd
00000060: f680 b1bd 0d37 97bc 7ee8 5b3e deab 8dbe
00000070: 0506 bbbd 45ad 9f3e 53df 14be 0385 cf3d
00000080: a87d 88bd 3dcd 8ebe 44bc 113e a014 d5bd
00000090: cfcb df3d 0f68 5d3d f63b 15bf cbce c43c
000000a0: 9435 8ebd 0db3 02bf dc4c 793e f3e9 11be
000000b0: 1d62 453e cbee cdbd 519b 923d 2419 903e
000000c0: 4b99 bd3c 68fb 84be b1e9 c43e 1a7e 48be
000000d0: 26e3 30be 2c23 8abe b58a babd 521d 273d
000000e0: 0779 b53d ac08 93be 0167 5dbd 4c86 423d
000000f0: f16a 0abf 75f1 28be ad97 21be 93fe cebe
00000100: 8b7e dabe 90b5 63be 9eba 323e 324f 52bd
00000110: 51bf 3c3b 581e b13e 1eb7 b33d 8074 9c3e
00000120: 0bda 1fbe 5e48 443e 973a 9cbe fb2a b23e
00000130: b0f0 0cbe c7fd ad3d 218e 97bd 9101 0a3e
00000140: f55e 9a3d 7aa5 0fbe 2ca0 df3d 127e 2b3e
00000150: 2ea4 173e 5aec af3d 7f20 19be 02a9 c0be
00000160: c22f 43bd 715a c7be 80af b9bd a3b2 913e
00000170: e41e afbe c0d2 90be 329a dfbe 088b 92be
00000180: 08b2 2d3d 1479 b33c 6e99 b53e 23d5 3cbe
00000190: 5bdf 83bd 6513 efbd 56e2 20be b13a 72be
000001a0: 5fe7 4e3d c300 30be 2de6 b43d 249c bfbd
000001b0: dc0b d0be 66e4 62be 502d cfbd 979f 36be
000001c0: dde3 bdbd caff 7fbc 5861 1b3e cc13 0d3c
000001d0: eb38 7cbe 35b6 fdbd 6952 62be c5a4 2f3c
000001e0: fdc9 cbbd 2d2f c73c 4029 22be 405f 073c
000001f0: 4927 9cbc fc98 d03e e74b 463c 41ce 853c
00000200: b5d0 12be 3afa f4bd 69c9 11be e4bf 13be
00000210: 2d29 ea3d db53 a03b c661 6c3c 05db c1bd
00000220: a4d5 43bc 8a85 ad3c 44a1 513c c1fc 9cbb
00000230: 5c8a b5bd 5f21 b03c 5f38 f13d e97e 40bd
00000240: 9cca d53d addd 3f3c ff72 203b 12ed 943d
00000250: eb56 07bd 258a 7cba cdd4 00bd dfac 0ebe
00000260: 4e9c df3b 5b5d dbba c4de 31bd 42b1 e9ba
00000270: c941 68bd 30c9 653d db39 07be e54e 53bd
00000280: fc83 31bd 8faf af3c 096d abbd 01ab 92bc
00000290: de6f 04be f95e ea3c dd85 7ebd fc96 523d
000002a0: 62b4 f73d 14fc cd3d c767 c8bd 9a35 923d
000002b0: 87e0 dabd 3dd3 fabb 13b2 bf3c 7d03 22be
000002c0: a983 38be e96d a0bc 188e ba39 fa6d 02be
000002d0: 905a 203d 9b2a 7d3d e5e9 21bd 7227 44be
000002e0: 0732 033c 041e abbd 9a29 fdbc 1bf7 b3bd
000002f0: b817 813c 8c61 f93c 2cc1 0dbe cbb1 0fbe
00000300: 1af3 12be f743 1dbe e02d b9bc 935f 8dbd
00000310: 74db 6ebd 6e09 22be a75c 983d d518 dcbd
00000320: e211 c0bd 4f72 bf3d 3c35 75bd 705f b1bd
00000330: d500 023d 8b04 c4bd 8b19 803d 4ccb 48bc
00000340: 5f82 343d 9e9a 46bb b55b e0bd 15b3 99bd
00000350: e8ef 4b3b eb4b 71bd 9269 703d 4892 803d
00000360: e4ca c1bd 168a c0bd d023 28bd 0a18 f23d
00000370: bcb8 b1bc 0869 bd3d fe5f 193c 9a32 f0bd
00000380: aecf 09be 33ec e9bc 3194 09be c709 b8bd
00000390: b67a 3d3d 725d 12be 7f9d e2bd 5463 f93d
000003a0: f4e5 e5bd 49ce 25be 1d55 43bd a552 64bb
000003b0: f03d 20be efdc 2cbe 8150 0cbe 55b6 53bc
000003c0: 5e92 32bd ea8e 20be 6cfb 1dbe f0c7 16bd
000003d0: e61c 2dbe cfd6 1fbe 1c2a 6ebd 4bd1 44be
000003e0: 7c61 94bd 4802 b5bd d2e1 053c 5459 1bbd
000003f0: 6ca7 823d 0af1 cbbd aa7d b8bd 70e9 13be

layer3.lin.weight f4 [1, 128]
0.44525808 -0.09000255 -0.20470792 -0.09467151 -0.06401967 0.05065135 0.053132907 0.109357744
-0.09007208 0.14363223 -0.22960486 -0.14003791 -0.0009707558 0.15319505 0.010861904 -0.1457701
0.3628631 -0.1862788 -0.13839379 0.13159472 -0.18664144 0.2806546 -0.11775442 -0.061653282
0.036346167 -0.0039104214 -0.28940266 -0.066284925 0.25332567 -0.21598965 0.09606771 -0.18228883
0.18597172 -0.024157047 -0.15865856 0.06957409 0.70061845 0.0010418703 -0.24451299 0.060204495
0.11312585 0.092292905 -0.14104304 -0.34107476 -0.09648452 0.1030034 -0.23989712 -0.23105079
-0.039753534 0.104639485 0.019963013 -0.14889984 -0.2395879 0.190729 -0.026308898 0.066136174
0.023088746 0.39607856 0.044486742 0.04398669 -0.008318954 0.10126986 0.16118194 0.05304216
0.14894329 -0.14583594 -0.05925239 -0.0092332 -0.049012225 0.08721919 -0.19313206 -0.1633228
0.044009324 0.085431464 -0.17022833 -0.20733893 0.0009947188 0.040220387 0.040340923 -0.03833075
-0.041818026 -0.083152294 -0.021942021 -0.1944051 -0.17156763 0.07998529 -0.0043813433 0.11897937
-0.1290552 0.09938261 -0.004908189 -0.23181532 0.5740042 -0.088483065 0.2525596 0.045028705
-0.11546596 0.119285025 -0.030006409 0.044937775 -0.020881148 -0.0025141812 0.12130053 0.059317034
-0.16445623 -0.17483233 0.007004186 -0.07423786 0.44793093 -0.054645505 0.0040888367 0.28550762
-0.06749343 0.031013338 0.031412847 -0.22300117 -0.02688196 0.1792807 -0.018264486 -0.18821174
0.122830465 -0.13031118 0.14773323 -0.24155027 0.07306556 0.15562515 -0.055235147 0.013909663
00000000: def8 e33e 4253 b8bd f49e 51be 23e3 c1bd
00000010: bf1c 83bd ca77 4f3d e4a1 593d f4f6 df3d
00000020: b677 b8bd 5414 133e 891d 6bbe 1966 0fbe
00000030: 527a 7eba 2adf 1c3e 21f6 313c c244 15be
00000040: 31c9 b93e dfbf 3ebe 1ab7 0dbe c4c0 063e
00000050: ef1e 3fbe f6b1 8f3e 3b29 f1bd 2788 7cbd
00000060: b8df 143d fe22 80bb 962c 94be 64c0 87bd
00000070: e7b3 813e 642c 5dbe 26bf c43d eca9 3abe
00000080: 5f6f 3e3e 00e5 c5bc 6477 22be dc7c 8e3d
00000090: bb5b 333f 5e8f 883a 9d61 7abe fd98 763d
000000a0: 87ae e73d 1004 bd3d 966d 10be 5aa1 aebe
000000b0: ad99 c5bd 72f3 d23d 97a7 75be 9498 6cbe
000000c0: 9ad4 22bd 3a4d d63d 7989 a33c 3379 18be
000000d0: 8856 75be 774e 433e c285 d7bc 6772 873d
000000e0: 9c24 bd3c cfca ca3e bb37 363d 632b 343d
000000f0: 394c 08bc 9366 cf3d e10c 253e bc42 593d
00000100: 9784 183e 0456 15be a2b2 72bd d946 17bc
00000110: 0bc1 48bd fa9f b23d 69c4 45be 183e 27be
00000120: 1f43 343d b1f6 ae3d 5650 2ebe a850 54be
00000130: 3961 823a 22be 243d 863c 253d b400 1dbd
00000140: 6149 2bbd c04b aabd c1bf b3bc 2112 47be
00000150: 6daf 2fbe 54cf a33d 5f91 8fbb 75ab f33d
00000160: 0c27 04be 1c89 cb3d e0d4 a0bb ff60 6dbe
00000170: f0f1 123f 9c36 b5bd 7e4f 813e 0570 383d
00000180: 6b79 ecbd b54b f43d 00d0 f5bc ac10 383d
00000190: f10e abbc f6c4 24bb 6a6c f83d 6bf6 723d
000001a0: 3767 28be 3f07 33be 5f83 e53b 050a 98bd
000001b0: 3457 e53e f7d3 5fbd a6fb 853b 0e2e 923e
000001c0: ff39 8abd af0f fe3c c2aa 003d 6b5a 64be
000001d0: 8e37 dcbc 5c95 373e 679f 95bc 94ba 40be
000001e0: 8a8e fb3d 4b70 05be 6147 173e f458 77be
000001f0: 65a3 953d 335c 1f3e 403e 62bd 5be5 633c
