code/SL-GNN/Models/model_case_3.pt (torch, 72060 bytes, 5 tensors)

layer1.bias f4 [128]
0	0xbd3379ee	-0.043817453
1	0xbd29b0ca	-0.041428365
2	0xbd63b594	-0.05559309
3	0xbdbf38d1	-0.09337009
4	0x3cd27491	0.025690349
5	0xbd213748	-0.03935936
6	0x3d9293ca	0.07157095
7	0xbd71e7b1	-0.05905885
8	0xbd91c1be	-0.071170315
9	0xbe90b35b	-0.28261837
10	0x3d12e6d8	0.03586468
11	0xbc8a3b7b	-0.016874066
12	0xbd4f295e	-0.05057656
13	0xbc7c1e87	-0.015388138
14	0xb9b9b256	-0.0003541882
15	0xbdd65452	-0.104653016
16	0xbd98d4d0	-0.07462466
17	0xbe92dfb6	-0.28686303
18	0xbad7a420	-0.0016452111
19	0xbdecf926	-0.11570959
20	0xbe55d0f7	-0.20880495
21	0xbca725bf	-0.02040374
22	0xbcaa440b	-0.020784399
23	0x3d8a2f38	0.067472875
24	0x3cd0d283	0.025491005
25	0xbc851bd1	-0.016248615
26	0xbe850208	-0.25978112
27	0x3d323fc4	0.043517843
28	0x3de1d7d7	0.11027496
29	0xbdc022fd	-0.093816735
30	0xbe464a60	-0.1936431
31	0xbd4b19a7	-0.04958501
32	0x3b0533e9	0.002032513
33	0xbdad35cc	-0.084575266
34	0x3d498b5e	0.049205177
35	0xbdef4308	-0.11682707
36	0xbd9f5808	-0.077804625
37	0xbd9acf60	-0.07559085
38	0xbe2ae303	-0.1668816
39	0xbdea9e8d	-0.114560224
40	0xbe0497ca	-0.12948528
41	0xbdb64a15	-0.08900849
42	0xbc6da649	-0.0145049775
43	0x3db09ed3	0.08624043
44	0xbdab24fd	-0.08356664
45	0xbd7eb40f	-0.062183436
46	0xbdf2fdb8	-0.11864799
47	0xbd6d0b59	-0.05787215
48	0xbdc51a6f	-0.096241824
49	0xbd201e35	-0.039091308
50	0xbdd1b098	-0.10238761
51	0xbd2e9de8	-0.04263106
52	0x3c634739	0.013871961
53	0xbe0a9d78	-0.13536632
54	0x3ca9627e	0.020676848
55	0xbd490922	-0.049080975
56	0xbe81e743	-0.2537175
57	0xbe5582b6	-0.20850644
58	0xbc91efec	-0.017814599
59	0xbdb5376f	-0.08848464
60	0x3d83418e	0.06408988
61	0x3d7b515c	0.061356887
62	0xbdd08d21	-0.10183168
63	0xbc2791a4	-0.0102275945
64	0xbd3ef1ee	-0.04661744
65	0xbbf86123	-0.007579939
66	0xbdf1a486	-0.117989585
67	0xbdbb39db	-0.091418944
68	0xbd464ece	-0.048414998
69	0xbe73cdb9	-0.23808946
70	0xbc544899	-0.012956762
71	0xbd8bcf9a	-0.06826706
72	0xbda43bca	-0.08019216
73	0x3d0c5a10	0.034265578
74	0xbd147bfe	-0.03625106
75	0xbdc4f972	-0.096178904
76	0xbda51729	-0.08061058
77	0x3d55d715	0.05220707
78	0xbe7361c3	-0.23767762
79	0xbe55d797	-0.20883022
80	0xbdf43b4d	-0.11925373
81	0xbd5d0434	-0.053959087
82	0xbc491dc0	-0.012275159
83	0x3dc9647d	0.0983362
84	0xbd9cec99	-0.07662315
85	0x3ce7a422	0.028276507
86	0xbd984f7d	-0.07437036
87	0xbd633ce3	-0.055477988
88	0xbcaf90ac	-0.02143129
89	0x3d4b8fcd	0.049697686
90	0xbcad10f7	-0.021126254
91	0xbc970205	-0.01843358
92	0xbdabcd73	-0.08388796
93	0xbdebae6c	-0.11507878
94	0x3d9dc543	0.0770364
95	0xbc9971dc	-0.01873105
96	0xbc977da7	-0.018492533
97	0x3a8b8bb8	0.0010646498
98	0xbdb0dd5e	-0.086359724
99	0xbe140095	-0.14453347
100	0xbe038693	-0.12844305
101	0x3d46bb56	0.0485185
102	0xbc82cb3c	-0.01596605
103	0xbd5fcfe5	-0.054641623
104	0xbda8dc3e	-0.08245133
105	0xbda9a2ae	-0.08282982
106	0xbe6d5f75	-0.23180945
107	0xbe2ab0fc	-0.16669077
108	0xbda18930	-0.078874946
109	0x3d05bddb	0.032651763
110	0xbca66799	-0.020313071
111	0xbe1dc262	-0.15406182
112	0x3e0f4a49	0.13993181
113	0xbd9062d6	-0.070501015
114	0xbe20fdca	-0.15721813
115	0xbe6a068a	-0.22854057
116	0xbc1a4dfe	-0.009418009
117	0x3d5c039f	0.05371439
118	0xbdec09d2	-0.115253106
119	0xbd2d8d1b	-0.042370897
120	0x3daa3ef6	0.0831279
121	0xbd68f333	-0.056872558
122	0xbc3ff73d	-0.011716661
123	0xbdcdd44c	-0.10050258
124	0xbda320cf	-0.07965242
125	0xbdb4d754	-0.08830133
126	0xbc7e888d	-0.015535486
127	0xbd8d64c5	-0.06903986

layer1.lin.weight f4 [128, 3]
0	0xbdb7aa58	-0.08968037
1	0x3e68fe95	0.22753365
2	0xbdde230f	-0.10846531
3	0x3ef617df	0.48065087
4	0x3c890fa9	0.0167311
5	0xbd3db2a4	-0.046312943
6	0xbd0efb24	-0.034907475
7	0xbe7f26b2	-0.24917105
8	0x3c399c2b	0.011328737
9	0x3ed92944	0.42414296
10	0x3e091599	0.13387145
11	0xbe8e141b	-0.27749714
12	0x3d0ecfb5	0.034866054
13	0xbd925dcb	-0.07146796
14	0x3e0aaba3	0.13542037
15	0xbc6c99f3	-0.014441001
16	0xbdc56553	-0.09638467
17	0xbe415fe7	-0.1888424
18	0x3e5306e2	0.20608094
19	0xbeb81365	-0.35952297
20	0xbe03b6db	-0.12862723
21	0x3d05ac52	0.03263504
22	0xbde92a90	-0.11385071
23	0xbd986616	-0.07441346
24	0xbd734231	-0.059389297
25	0x3e5e2a01	0.2169571
26	0x3d893f2e	0.06701504
27	0xbe654edd	-0.22393365
28	0xbc3ddde3	-0.011588546
29	0x3e08dcdb	0.133655
30	0x3d208c52	0.03919632
31	0x3e97ef03	0.2967454
32	0xbe3bc1fc	-0.18335718
33	0x3eb97bce	0.36227268
34	0xbeb7f746	-0.35930842
35	0x3c265e17	0.010154269
36	0xbcb8d2c5	-0.02256144
37	0xbe42a075	-0.19006522
38	0xbe038587	-0.12843905
39	0x3c0ae919	0.008478426
40	0xbd2bd01f	-0.041946527
41	0xbde7296e	-0.11287199
42	0x3ea008f9	0.31256846
43	0xbc8861f2	-0.016648266
44	0xbc246089	-0.010032781
45	0x3ed3e692	0.4138685
46	0x3e4231bf	0.18964289
47	0xbef53086	-0.47888583
48	0x3e9c4766	0.30523223
49	0x3d817a67	0.063221745
50	0xbe42b25f	-0.19013356
51	0xbe32f681	-0.17476846
52	0x3d56a54c	0.052403733
53	0x3d66cdbd	0.05634855
54	0xbe6d9287	-0.23200427
55	0xbeade468	-0.33963323
56	0x3d991232	0.074741736
57	0xbd932a50	-0.07185805
58	0xbb0f4ea9	-0.0021866953
59	0xbcb7acae	-0.022421207
60	0xbcdc8294	-0.026917733
61	0xbe2e90c1	-0.17047407
62	0x3db845ca	0.08997686
63	0x3e9d74a9	0.30753067
64	0xbb84f4d7	-0.0040575075
65	0xbd58c56b	-0.052922647
66	0x3ec2096a	0.37897807
67	0xbec03909	-0.37543514
68	0x3d824c21	0.06362177
69	0x3ea474ec	0.32120454
70	0xbee1e08c	-0.44116628
71	0x3da1a011	0.07891858
72	0x3eb35d85	0.35032287
73	0x3d8c022e	0.06836353
74	0xbea292b0	-0.3175254
75	0x3eba7cb1	0.36423257
76	0xbeb1ead9	-0.34749487
77	0xbe31dcad	-0.17369337
78	0xbdf2009b	-0.11816522
79	0x3cd8597c	0.026409857
80	0x3d268a10	0.04065901
81	0x3ef60729	0.48052338
82	0xbf15b113	-0.5847332
83	0x3e040545	0.12892635
84	0x3e6617f1	0.2247007
85	0xbea567a9	-0.3230565
86	0xbe308395	-0.17237695
87	0x3ec7e3bc	0.39040935
88	0x3e09da65	0.13462217
89	0xbeb790de	-0.35852712
90	0xbd9a9eac	-0.075497955
91	0x3a5acda6	0.0008346684
92	0xbe294087	-0.16528521
93	0xbcf576fb	-0.02996396
94	0xbdae0a27	-0.0849803
95	0xbd979ac9	-0.0740257
96	0x3eb19019	0.3468025
97	0xbcbaee0b	-0.022818586
98	0xbe0f2fc8	-0.13983071
99	0x3eacaf82	0.33727652
100	0x3db47efd	0.088132836
101	0xbe6cf9a2	-0.23142102
102	0xbe0a5344	-0.13508326
103	0x3d879b18	0.06621379
104	0xbd565e4e	-0.05233603
105	0xbd7e26c6	-0.062048696
106	0x3e7117d1	0.23544241
107	0xbdcafb4c	-0.09911212
108	0xbc978370	-0.018495291
109	0xbdfcc669	-0.12342531
110	0x3d6beed2	0.057600804
111	0x3ebc6327	0.36794397
112	0x3d763912	0.06011302
113	0xbd16af77	-0.03678843
114	0x3cba5e9e	0.022750195
115	0xbd8b6f40	-0.06808329
116	0x3e1951cf	0.14972614
117	0xbe226cf2	-0.15861872
118	0xbe30db49	-0.1727115
119	0x3db0f963	0.08641317
120	0xbe46498e	-0.19363996
121	0xbe017cb4	-0.12645227
122	0x3e4ffe26	0.20311794
123	0x3ebec9a4	0.37263215
124	0x3d027403	0.03184892
125	0xbe078e52	-0.13237885
126	0xbea6e69a	-0.3259781
127	0x3e0f4a4a	0.13993183
128	0x3d6c8d93	0.057752203
129	0x3e593260	0.21210623
130	0xbe8cdfc3	-0.27514467
131	0xbd81dbab	-0.063407265
132	0xbe01d0fd	-0.12677379
133	0xbe8167d1	-0.25274518
134	0xbe102148	-0.14075196
135	0xbe207aef	-0.15671895
136	0xbd277fac	-0.04089324
137	0x3d91b8a1	0.07115293
138	0xbe53843f	-0.20655917
139	0x3e5eace3	0.21745639
140	0xbd4c70a4	-0.04991211
141	0xbd1145c1	-0.035466913
142	0xbdf7a89d	-0.12092707
143	0xbe22eb02	-0.15909961
144	0x3f275513	0.6536419
145	0x3e4b4769	0.1985146
146	0xbefc15e9	-0.49235466
147	0x3e80ac11	0.25131276
148	0xbe48aed3	-0.1959794
149	0xbe12497a	-0.14285842
150	0x3ea425ca	0.3206008
151	0xbe2ec815	-0.17068513
152	0x3e4dc6de	0.20095393
153	0xbcc2e490	-0.023790628
154	0xbe5b1ef8	-0.21398532
155	0x3b4cd378	0.0031253975
156	0x3cca55d6	0.024699133
157	0x3e829d47	0.25510618
158	0xbeb1b96d	-0.3471178
159	0xbda2a74a	-0.07942064
160	0x3e62c84e	0.22146723
161	0x3d275ca2	0.040859826
162	0x3ea7d1a2	0.32777125
163	0xbd12ef4e	-0.03587275
164	0xbd2da4c1	-0.04239345
165	0xbe5a1f52	-0.2130101
166	0x3c226a80	0.009913087
167	0xbedd477d	-0.43218604
168	0xbe49af64	-0.19695812
169	0x3c295c21	0.010336907
170	0x3da8491b	0.08217069
171	0xbe44e8d7	-0.19229446
172	0x3d692665	0.05692138
173	0x3e03b087	0.12860309
174	0x3ea079ed	0.31343022
175	0xbea1b4c7	-0.31583235
176	0xbb00c62d	-0.0019649372
177	0xbd801e6d	-0.06255803
178	0xbd6252c6	-0.05525472
179	0x3e0f8455	0.14015324
180	0xbe3cdf86	-0.18444642
181	0xbe7959c1	-0.24350645
182	0xbe56a13d	-0.20959945
183	0x3eac4f77	0.33654377
184	0xbcd08fd7	-0.025459213
185	0xbd9001dc	-0.07031605
186	0xbd4bf537	-0.049794402
187	0xbeb56162	-0.3542586
188	0x3c7dab56	0.015482744
189	0x3ee4f0ad	0.4471487
190	0xbb89c0a0	-0.004203871
191	0xbe78964e	-0.24276087
192	0xbe1bf80a	-0.15231338
193	0xbec032fa	-0.37538892
194	0x3c4392ae	0.011936827
195	0xbb811dc0	-0.003940314
196	0xbe02d66a	-0.12777105
197	0xbdf59d01	-0.11992837
198	0xbde0f14f	-0.10983526
199	0x3e2de159	0.16980495
200	0x3dfc7879	0.12327666
201	0x3eb7fc42	0.35934645
202	0x3e1e42c0	0.1545515
203	0xbec1c611	-0.37846425
204	0xbde3fd99	-0.11132354
205	0x3e857ff8	0.26074195
206	0x3be04bab	0.006844958
207	0xbbbd1056	-0.0057697697
208	0xbe5ae40b	-0.21376054
209	0x3c88ba18	0.016690299
210	0xbe24f65a	-0.161096
211	0xbe88149b	-0.2657822
212	0xbe054e5d	-0.13018174
213	0xbd2d3dac	-0.042295143
214	0xbd396575	-0.045262773
215	0xbd8ed7ee	-0.06974779
216	0xbcde346d	-0.027124608
217	0xbc9be7a9	-0.019031363
218	0xbe5a98f7	-0.21347414
219	0x3f04bb3d	0.518482
220	0xbd2430c9	-0.040085588
221	0xbab65a53	-0.0013912417
222	0xbc8f5637	-0.017497165
223	0xbe2c7827	-0.1684271
224	0xbe501b86	-0.20323
225	0x3ec592b3	0.38588485
226	0x3d075a76	0.033045255
227	0xbd5d5535	-0.054036338
228	0xbd9a6467	-0.075386815
229	0x3e9b6dae	0.30357116
230	0x3d708b71	0.05872673
231	0xbe0c6f18	-0.13714254
232	0xbe6f8d50	-0.2339375
233	0xbe3ccb10	-0.18436837
234	0x3cf484c6	0.029848468
235	0xbd293ec0	-0.04131961
236	0x3e262b33	0.16227417
237	0xbe8fce33	-0.28087005
238	0x3cdef642	0.027217034
239	0x3e5bfea4	0.21483856
240	0x3f008ce6	0.50214994
241	0x3e0138ad	0.12619276
242	0xbe0a5980	-0.13510704
243	0xbd4a041a	-0.049320318
244	0x3e15e222	0.14637044
245	0xbbe37382	-0.00694126
246	0xbbbfb721	-0.005850688
247	0xbe0b3543	-0.13594536
248	0xbcd7e44c	-0.026353978
249	0x3e12503e	0.14288422
250	0xbea45f04	-0.3210374
251	0x3e093116	0.13397631
252	0x3e8db5fb	0.27677903
253	0x3e0b771f	0.1361966
254	0xbea4b99f	-0.32172868
255	0x3ea8304d	0.3284935

layer2.bias f4 [128]
0	0xbdb5e8ad	-0.0888227
1	0x3d4ccdb4	0.05000086
2	0x3cac8013	0.021057164
3	0x3c19b963	0.009382579
4	0xbd5b0dcd	-0.05347996
5	0x3da6b7cd	0.08140526
6	0xbc1ca086	-0.009559756
7	0x3d27a38a	0.040927447
8	0xbd31d82a	-0.04341904
9	0x3d92b0e3	0.07162645
10	0xbd938c23	-0.07204463
11	0xbdab9e3d	-0.08379791
12	0xbdb1088c	-0.08644208
13	0x3d0b8058	0.034057945
14	0xbe17828e	-0.14795896
15	0x3d7df392	0.061999865
16	0x3d394e16	0.045240484
17	0xbd9171a8	-0.07101756
18	0x3c083eda	0.008315766
19	0x3b5eb201	0.003398061
20	0xbdbb1c22	-0.09136225
21	0x3df1fb3d	0.11815498
22	0xbda4be4e	-0.0804411
23	0xbde8545f	-0.113442175
24	0x3d1fc80e	0.039009146
25	0x3df3218d	0.11871634
26	0x3e1ac589	0.15114416
27	0x3dcc8877	0.09986966
28	0x3d75722b	0.059923332
29	0xbcc7fcfc	-0.024412625
30	0x3d20b9ad	0.039239574
31	0xbdd56a68	-0.10420686
32	0x3d11b604	0.035573974
33	0x3e93990c	0.28827703
34	0x3d88a0d4	0.066713005
35	0x3eadeb3a	0.33968526
36	0x3dc0523f	0.09390687
37	0xbc89fada	-0.016843248
38	0xbd84fa2e	-0.064930305
39	0xbd373b2a	-0.044734158
40	0xbdb13e7b	-0.08654495
41	0x3e5efb1a	0.21775475
42	0x3e4decc2	0.20109847
43	0xbd1cc279	-0.0382714
44	0xbdbe91a9	-0.09305126
45	0xbd27e468	-0.04098931
46	0x3eb24c55	0.34823862
47	0xbebefff4	-0.37304652
48	0x3caa1c92	0.020765577
49	0xbcf95cce	-0.03043976
50	0xbe95c0f3	-0.2924877
51	0x3d55f7ec	0.05223839
52	0x3d53bf5d	0.05169617
53	0x3edb08ab	0.4278005
54	0x3cf7f886	0.030269872
55	0xbdd77806	-0.105209395
56	0xbe116957	-0.1420034
57	0x3e2f39cb	0.1711189
58	0x3dda2e55	0.106533684
59	0xbd8d47de	-0.06898473
60	0xbd8f6f54	-0.07003656
61	0x3d84947a	0.06473632
62	0x3cafa79f	0.021442233
63	0x3e288996	0.16458735
64	0x3c3c3a7e	0.011488555
65	0x3d155888	0.036461383
66	0x3e68513c	0.22687238
67	0xbdcf44b2	-0.101205245
68	0x3e878fbd	0.2647685
69	0x3de0f6f8	0.109846056
70	0x3d76bd34	0.060239032
71	0x3b92ee66	0.0044839857
72	0x3e4a57b3	0.19760017
73	0x3d54874d	0.051886845
74	0xbe934e24	-0.28770554
75	0xbdc1b298	-0.09457892
76	0xbcf4f2b0	-0.029900879
77	0x3d8cbe5f	0.06872248
78	0xbe16b726	-0.14718303
79	0xbee9521c	-0.45570457
80	0xbcf55d40	-0.029951692
81	0xbe485d19	-0.19566764
82	0x3ef8b544	0.48575795
83	0xbd8fbc02	-0.070182815
84	0x3e30ae68	0.1725403
85	0x3e67ad1e	0.22624633
86	0xbdc2e83b	-0.09516951
87	0x3dbbf20e	0.09177028
88	0xbd01d2fb	-0.031695347
89	0x3d44181b	0.04787455
90	0xbe3458d8	-0.17612016
91	0x3d90d9b5	0.07072774
92	0xbd5bd970	-0.05367416
93	0xbd078f8f	-0.033095893
94	0xbc85288e	-0.01625469
95	0x3cf91fb1	0.03041062
96	0x3c195a70	0.009359941
97	0x3b800004	0.003906252
98	0x3deccdb8	0.11562675
99	0xbcedf762	-0.029048625
100	0x3cef9f8f	0.029250888
101	0x3e2e8ccd	0.17045899
102	0x3d2f0c10	0.042736113
103	0x3d982702	0.07429315
104	0xbc2e733f	-0.010647594
105	0xbc29a232	-0.010353612
106	0x3e6a61dd	0.22888894
107	0xbe7ff323	-0.24995093
108	0x3dca5d76	0.098811075
109	0x3d39aea2	0.04533256
110	0xbd6c65ef	-0.0577144
111	0x3ca8d56a	0.020609576
112	0xbf0b3802	-0.54382336
113	0x3c61279e	0.013742356
114	0xbdbe3947	-0.092882685
115	0x3d164520	0.036687016
116	0xbd7d948d	-0.061909247
117	0x3d13d8f6	0.036095582
118	0x3bc056b6	0.0058697117
119	0xbddc4c13	-0.107566975
120	0x3e189a95	0.14902718
121	0xbe214efc	-0.15752786
122	0xbd89a115	-0.06720177
123	0x3de133f2	0.10996236
124	0x3d499fe7	0.04922476
125	0x3e13d1af	0.14435457
126	0xbe09ed2b	-0.13469379
127	0xbded8e07	-0.11599355

layer2.lin.weight f4 [128, 128]
0	0xbd885951	-0.06657661
1	0xbbf3ac64	-0.007436322
2	0x3b17e202	0.0023175483
3	0xbda21454	-0.079140335
4	0x3de2cd3e	0.11074303
5	0xbdf194cc	-0.11795959
6	0xbe2815a7	-0.1641451
7	0x3bf59137	0.0074941176
8	0xbdd95106	-0.10611157
9	0xbd680aa0	-0.056650758
10	0xbdb7b2bd	-0.089696385
11	0x3d652ba2	0.055949815
12	0xbbb5029c	-0.0055239927
13	0x3d190456	0.03735765
14	0x3dd8bc66	0.10582809
15	0x3dddbb74	0.108267695
16	0x3debb42e	0.11508976
17	0x3da62d16	0.08114068
18	0xbe08c93c	-0.13358015
19	0xbcc38982	-0.02386928
20	0xbd3cac6e	-0.04606288
21	0xbc915086	-0.017738592
22	0xbd2f32d4	-0.042773083
23	0xbe08ac72	-0.13347033
24	0x3e1290ce	0.14313051
25	0xbddc9cae	-0.10772072
26	0xbd7daf16	-0.061934553
27	0xbd289580	-0.0411582
28	0x3ce4f591	0.027949126
29	0x3de4bae5	0.1116846
30	0x3c7ca751	0.015420751
31	0x3d1dd5d4	0.038534
32	0xbe022af9	-0.12711705
33	0xbdaf457d	-0.08558176
34	0xbe4b4128	-0.19849074
35	0xbe64fca7	-0.22362004
36	0x3bf789b8	0.007554259
37	0x3d22e935	0.039773185
38	0xbdcb08c0	-0.09913778
39	0x3d96719d	0.07345889
40	0x3e01d9f1	0.12680794
41	0x3cc79e17	0.024367375
42	0xbdbdf0cb	-0.09274443
43	0xbdd15eca	-0.10223158
44	0x3dc846f7	0.097791605
45	0xbe0a8957	-0.13528953
46	0xbd08d221	-0.03340352
47	0x3d8e8d53	0.06960549
48	0xbc95cc2e	-0.018285837
49	0xbe01bbdc	-0.12669319
50	0xbdf3dc98	-0.11907309
51	0xbdb95c40	-0.090507984
52	0xbe4a48cf	-0.19754337
53	0x3e1f8b90	0.15580583
54	0x3cc119eb	0.023571929
55	0x3dac1ad9	0.08403558
56	0xbe0fd66f	-0.14046644
57	0xbcf16204	-0.029465683
58	0xbe261add	-0.16221185
59	0x3d1f6d39	0.038922522
60	0xbcd2ab60	-0.025716484
61	0x3d1fceb3	0.039015483
62	0x3c550cdf	0.013003557
63	0x3ce93dc6	0.028471839
64	0xbe295bae	-0.1653888
65	0xbe1992f7	-0.14997469
66	0xbd0b0824	-0.03394331
67	0x3e1789fa	0.14798728
68	0x3c70f8cb	0.014707754
69	0x3dd1f95e	0.10252641
70	0xbe2165fb	-0.15761559
71	0xbe012477	-0.12611566
72	0x3e03cc26	0.12870845
73	0xbd9abb8d	-0.07555304
74	0xbd7970df	-0.060898658
75	0x3db328e2	0.08748032
76	0xbdbad60c	-0.091228575
77	0xbda5cfcb	-0.08096274
78	0x3dfa684c	0.12226924
79	0xbe570146	-0.2099658
80	0xbdcfb644	-0.10142186
81	0xbdd3adfa	-0.10335918
82	0xbdb2a599	-0.087229915
83	0x3baec23d	0.0053332136
84	0xbd25e7e5	-0.040504355
85	0xbceaf386	-0.028680574
86	0xbdcdd9a5	-0.10051278
87	0xbd17447c	-0.036930546
88	0xbe1fdf18	-0.15612447
89	0xbba7f700	-0.0051258802
90	0xbd935779	-0.071944185
91	0x3cf4b0ac	0.0298694
92	0xbcf5939c	-0.029977612
93	0xbdd633d1	-0.10459102
94	0x3ce5c132	0.028046224
95	0xbce1e910	-0.027576953
96	0x3d8c81ce	0.06860696
97	0x3deb4ca3	0.11489227
98	0x3c9e6aea	0.01933809
99	0x3dacb318	0.08432597
100	0x3ab41bb7	0.001374117
101	0xbe0a84f1	-0.13527276
102	0xbdae90db	-0.08523723
103	0xbe1f4006	-0.15551767
104	0xbd690bae	-0.056895904
105	0xbe065aa2	-0.13120511
106	0xbd74cc53	-0.05976517
107	0xbe387c06	-0.18016061
108	0xbbbcc89e	-0.00576122
109	0x3db7f54f	0.08982336
110	0xbd945e3d	-0.07244537
111	0xbcdbca60	-0.026829898
112	0xbe340554	-0.17580158
113	0x3bd982fc	0.006637929
114	0x3e04b70e	0.12960455
115	0xbe0c56b0	-0.13704944
116	0xbe1104e8	-0.14162028
117	0x3e0987af	0.13430665
118	0x3d6e1a11	0.058130328
119	0xbdc1c1b3	-0.09460773
120	0xbe05b7cd	-0.13058396
121	0xbdbc42ed	-0.091924526
122	0xbd4d4ec8	-0.05012396
123	0x3dcb870d	0.09937868
124	0xbdd2d01d	-0.10293601
125	0xbdbe8431	-0.09302557
126	0x3d96ed44	0.073694736
127	0xbdd2b745	-0.10288862
128	0xbe6ac215	-0.22925599
129	0x3eb3022c	0.34962595
130	0x3ddfba95	0.109242596
131	0x3e577771	0.21041657
132	0xbe8d1299	-0.2755325
133	0x3e102a58	0.14078653
134	0xc0050ecc	-2.0790281
135	0xbdb605db	-0.088878356
136	0xbe2928e1	-0.165195
137	0x3d3bfb65	0.045894045
138	0x3c7b2796	0.015329262
139	0xbf6ac960	-0.91713524
140	0xbca97951	-0.020687731
141	0xbe31675a	-0.17324582
142	0x3de15df5	0.11004249
143	0x3e5eb468	0.21748507
144	0x3e8137c0	0.25237846
145	0xbe9842a3	-0.2973834
146	0xbf211950	-0.6292925
147	0xbc7631a6	-0.015026486
148	0xbd4c7424	-0.049915448
149	0x3d25097e	0.040292256
150	0xbfd94d2e	-1.6976678
151	0xbfc4b47e	-1.5367582
152	0x3e15eee0	0.14641905
153	0xbfda29d3	-1.7044014
154	0xbba54c8b	-0.005044525
155	0xc026dc31	-2.6071894
156	0xbfc4b88a	-1.5368817
157	0x3ddac2ff	0.10681724
158	0xbc47d55e	-0.012196867
159	0x3a85ade9	0.0010198924
160	0x3eb24ae4	0.34822762
161	0x3dd713af	0.10501801
162	0xbe29b06f	-0.1657121
163	0xbe8c558e	-0.27409023
164	0xbda1fc88	-0.07909495
165	0x3e560a52	0.20902374
166	0x3d623ab2	0.055231757
167	0x3e5d6fc9	0.21624674
168	0x3d2199af	0.039453205
169	0x3df5a9ac	0.11995253
170	0xbe2698b8	-0.16269195
171	0xbde90665	-0.11378173
172	0xbd697530	-0.056996524
173	0x3db10ff6	0.086456224
174	0xbec1880a	-0.37799102
175	0x3d8263a0	0.06366658
176	0x3e63d410	0.22248864
177	0xbf68c749	-0.90929085
178	0xbf713d42	-0.94234097
179	0xbdaacba8	-0.083396256
180	0xbdaa8957	-0.08326977
181	0xbeddb37e	-0.43301004
182	0x3e9b48a8	0.3032887
183	0xbdf7cc6f	-0.120995395
184	0x3d130b8c	0.035899684
185	0x3cf90d11	0.030401738
186	0xbfcb97da	-1.5905716
187	0xbe3fd33b	-0.18732922
188	0xbfa8b414	-1.3179955
189	0x3e49ebdf	0.19718884
190	0xbd7d6926	-0.061867855
191	0x3ec25eca	0.37962943
192	0xbe05009f	-0.12988518
193	0xbdb14385	-0.086554565
194	0xbec47132	-0.3836761
195	0x3e4f3db1	0.20238377
196	0xbead56d0	-0.33855295
197	0x3d1012a9	0.035174046
198	0xbe5d7006	-0.21624765
199	0x3c4703d1	0.012146906
200	0x3caf2c4b	0.021383425
201	0x3edc7575	0.43058363
202	0xbd5c18b6	-0.053734504
203	0x3ebc6ff7	0.36804172
204	0xbe2f8ce1	-0.17143585
205	0xbf92abd7	-1.1458691
206	0x3bc3c3b4	0.0059742574
207	0xbe130b3e	-0.14359757
208	0x3e9a44a8	0.30130506
209	0xbe22fa56	-0.15915808
210	0xbca7fe6f	-0.020507066
211	0xbebc6666	-0.36796874
212	0x3da8c86c	0.082413524
213	0x3e523eaa	0.20531717
214	0x3e784d97	0.24248348
215	0xbe91aa5e	-0.28450292
216	0x3d5c3970	0.053765714
217	0xbf399690	-0.72495365
218	0xbf279935	-0.6546815
219	0xbff6e98d	-1.9290024
220	0xbe63683c	-0.22207731
221	0x3e9908af	0.29889438
222	0x3e94e6b1	0.29082254
223	0xc0158208	-2.3360615
224	0xbfec9374	-1.8482499
225	0x3e13772f	0.14400934
226	0xbe7f544d	-0.24934502
227	0xbca46caf	-0.020071356
228	0x3e1057a4	0.14095932
229	0x3beffb86	0.007323685
230	0xbd4c1b7f	-0.04983091
231	0x3e6b861d	0.23000379
232	0xbe02f387	-0.12788211
233	0xbdc51c45	-0.096245326
234	0xbe1c1b24	-0.15244728
235	0x3d29af61	0.04142702
236	0x3d95172b	0.072798096
237	0x3d63fabc	0.05565904
238	0xbe88b05b	-0.2669705
239	0x3da5d401	0.08097077
240	0xbf69cf9b	-0.91332406
241	0xbd4d42ba	-0.050112464
242	0xbf1a02dc	-0.60160613
243	0x3e1047fa	0.14089957
244	0xbe4543ef	-0.19264196
245	0xbf453543	-0.77034396
246	0xbe5fe8d3	-0.21866159
247	0xbeaa8786	-0.3330652
248	0xbf984340	-1.1895523
249	0x3d07f737	0.033194747
250	0xbf431ab8	-0.76212645
251	0x3eb30777	0.34966633
252	0x3e24a52c	0.16078633
253	0x3e91b423	0.28457746
254	0xbd13c95f	-0.036080714
255	0xbe98c8dc	-0.29840744

layer3.lin.weight f4 [1, 128]
0	0xbd896599	-0.06708831
1	0xbc98997e	-0.018627878
2	0xbe792297	-0.24329601
3	0xbd975968	-0.073901
4	0xbd825e5b	-0.06365653
5	0x3e693cc6	0.2277709
6	0xbeb45d76	-0.35227555
7	0x3e0feb6a	0.14054647
8	0xbca8e59d	-0.0206173
9	0x3e87804d	0.26465073
10	0xbe9d383f	-0.30706975
11	0x3d83cd62	0.06435658
12	0xbe86c31c	-0.26320732
13	0x3e1dd34a	0.15412632
14	0xbd325c5c	-0.043545112
15	0xbcd1ac08	-0.025594726
16	0x3d1170ed	0.035508085
17	0xbe6ac1dc	-0.22925514
18	0x3d9715bd	0.07377193
19	0xbdeea0db	-0.116517745
20	0x3cf3622f	0.029709904
21	0x3deb3b0f	0.11485874
22	0x3cc6f390	0.024286062
23	0xbe486941	-0.19571401
24	0x3e63975d	0.2222571
25	0x3cd51a6b	0.026013574
26	0x3e536f36	0.20647892
27	0xbed921cc	-0.42408597
28	0x3cc32960	0.02382344
29	0xbd6839cc	-0.056695744
30	0xbcb0d9dd	-0.02158826
31	0x3dd1ce76	0.102444574
32	0xbde3e184	-0.11126998
33	0x3e64387d	0.22287174
34	0xbdc4680d	-0.095901586
35	0x3ec14fa0	0.37756062
36	0x3e8869af	0.2664313
37	0x3ebba1aa	0.36646777
38	0xbb227366	-0.002478802
39	0xbb86f4b7	-0.0041185278
40	0xbd90afb5	-0.070647635
41	0x3ea07cbe	0.3134517
42	0xbc92eccd	-0.017935181
43	0xbe832543	-0.25614366
44	0xbd9ecd4c	-0.07754001
45	0x3dffcde4	0.124904424
46	0x3ea351ef	0.31898448
47	0xbeaeb988	-0.34125924
48	0x3d3d3d99	0.046201322
49	0xbe86aa71	-0.2630191
50	0x3e8ba539	0.27274492
51	0x3e8d4101	0.27588657
52	0x3e4f1aa0	0.20225
53	0x3ebaa21a	0.364518
54	0xbda1f62c	-0.07908282
55	0xbd89aef4	-0.06722823
56	0xba5af834	-0.0008353025
57	0xbc6f3b56	-0.014601549
58	0x3e7793f2	0.2417753
59	0x3d345fbd	0.044036616
60	0xbd94188e	-0.07231246
61	0x3e37108b	0.17877404
62	0xbdb814b0	-0.08988321
63	0x3e66dac8	0.22544396
64	0x3e1b7a88	0.1518346
65	0xbeda8616	-0.42680424
66	0x3e2487ec	0.16067475
67	0xbe3d21f9	-0.18469991
68	0x3e0191ef	0.12653325
69	0x3d8d31e6	0.06894283
70	0x3e4694cb	0.19392698
71	0x3cb4407a	0.022003401
72	0x3e8e420e	0.2778477
73	0x3e6c6b37	0.23087774
74	0xbcd01824	-0.025402136
75	0xbccaa737	-0.024737937
76	0x3d69ee2a	0.057111897
77	0x3b1d2107	0.0023975985
78	0xbdc1cb42	-0.094625965
79	0xbe993fec	-0.2993158
80	0xbceec404	-0.029146202
81	0x3e86af0b	0.26305422
82	0x3efc9105	0.4932939
83	0x3d5f7f5b	0.054564815
84	0x3e4e7e4e	0.20165369
85	0x3e29edfd	0.16594692
86	0xbd9e04ad	-0.077157356
87	0xbec408a2	-0.38287836
88	0xbc2bce05	-0.010486131
89	0xbda1343d	-0.07871292
90	0xbdbf9c33	-0.093559645
91	0x3cc70bb6	0.024297576
92	0x3b87d821	0.0041456376
93	0x3e06720b	0.13129441
94	0x3dc19cca	0.09453733
95	0x3e084bbd	0.13310142
96	0xbded7548	-0.11594635
97	0xbdf1dd28	-0.1180976
98	0x3e591d3a	0.21202555
99	0x3e1b8c22	0.15190175
100	0x3e21dd21	0.1580701
101	0xbd358ebb	-0.04432557
102	0x3d593ebf	0.053038355
103	0x3da8a035	0.08233682
104	0x3e7abfd4	0.24487239
105	0x3de642ee	0.112432346
106	0x3e7189a7	0.23587666
107	0xbe981f30	-0.29711294
108	0x3e5e7740	0.21725178
109	0xbd5cb0b0	-0.05387944
110	0xbdc57f27	-0.09643393
111	0x3b96ea53	0.0046055703
112	0xbe0b0089	-0.13574423
113	0xbe2fe0bf	-0.17175578
114	0xbdbd1465	-0.092324056
115	0x3df79539	0.12089009
116	0xbda81fad	-0.08209167
117	0xbc9f4142	-0.019440297
118	0xbe31a424	-0.17347771
119	0xbd6a5cb8	-0.05721733
120	0x3eb448bf	0.3521175
121	0xbcd733e9	-0.02626987
122	0x3ceb098e	0.02869108
123	0xbe45a24d	-0.19300194
124	0x3d005793	0.031333517
125	0x3e18d0b0	0.14923358
126	0x3d43d957	0.047814693
127	0x3d129047	0.035782125
